best_model.pt (torch, 28271 bytes, 5 tensors)

hidden_layer_1.weight f4 [100, 13]
0	0x3e65e8ef	0.22452138
1	0xbe05e44d	-0.13075371
2	0x3d47274f	0.048621472
3	0xbe5abd8c	-0.21361369
4	0xbe0cd902	-0.13754657
5	0x3d0238d8	0.03179249
6	0x3e259de2	0.16173509
7	0x3e79bfa0	0.24389505
8	0xbe531478	-0.20613277
9	0x3e2d4990	0.16922593
10	0x3e572fc2	0.21014312
11	0x3e90afdc	0.2825917
12	0xbd2dcf48	-0.042434007
13	0x3d0f2d14	0.0349551
14	0x3e72e73a	0.23721018
15	0xbe84b277	-0.25917408
16	0x3e7cae85	0.24675949
17	0xbdf272e4	-0.1183832
18	0x3e5b91f2	0.21442392
19	0x3db69d5b	0.08916732
20	0xbe54e4e4	-0.2079044
21	0x3e0b1e9b	0.13585894
22	0xbe4aff73	-0.19824009
23	0x3d347c58	0.044063896
24	0x3e446dc2	0.19182494
25	0x3de4a694	0.11164585
26	0xbd0301fb	-0.03198431
27	0x3d37380e	0.044731192
28	0xb9ef3032	-0.0004562154
29	0xbe8544d5	-0.26029077
30	0xbe103d15	-0.14085801
31	0x3e68937e	0.22712514
32	0x3e113af3	0.14182644
33	0x3e2bc339	0.1677369
34	0x3d2c5617	0.04207429
35	0x3e440411	0.19142176
36	0x3e2e73cd	0.17036362
37	0xbdd63295	-0.104588665
38	0xbd9119d5	-0.07085005
39	0xbe83025e	-0.25587744
40	0x3e8a43c4	0.27004826
41	0xbe044b81	-0.12919427
42	0x3e84e6f8	0.25957465
43	0xbe453f7d	-0.192625
44	0xbe5511e4	-0.20807606
45	0xbe222486	-0.15834245
46	0x3e4e1c04	0.20127875
47	0xbdcfe86c	-0.10151753
48	0xbd921798	-0.071334064
49	0x3e11f1dc	0.14252418
50	0xbe470abe	-0.19437692
51	0x3e17b476	0.14814934
52	0xbe4ae9ba	-0.19815722
53	0x3da08684	0.07838157
54	0xbe293683	-0.16524701
55	0xbe8d93c5	-0.27651802
56	0x3e5d0ff1	0.21588112
57	0x3dada7a9	0.08479244
58	0xbe3ffc2c	-0.1874854
59	0x3e65bbad	0.22434874
60	0x3cfaca41	0.03061402
61	0xbc13f4f0	-0.009030566
62	0xbe682cfe	-0.22673413
63	0x3d960bb9	0.07326455
64	0x3dbfba27	0.093616776
65	0xbd87a7c6	-0.06623797
66	0x3cf3d7b8	0.029765949
67	0xbe3a2042	-0.18176368
68	0xbdd79adf	-0.10527586
69	0x3e53c7c1	0.20681669
70	0x3e4d18a1	0.20028926
71	0x3e54d257	0.20783363
72	0xbdd307c2	-0.10304214
73	0x3da7ff2e	0.082029685
74	0x3e980614	0.29692137
75	0x3e1fe921	0.15616275
76	0xbdcfa247	-0.10138374
77	0x3dcbf47f	0.09958743
78	0x3cda2e59	0.026633428
79	0x3d0f21eb	0.034944456
80	0xbe8b4c54	-0.2720667
81	0xbe058c07	-0.13041697
82	0xbe80f8bd	-0.25189772
83	0x3e84c378	0.2593038
84	0x39ab645f	0.00032690444
85	0x3e2a4204	0.16626745
86	0xbd2aa443	-0.04166056
87	0xbdf53145	-0.11972288
88	0x3dd148a6	0.10218935
89	0x3cc4fb35	0.024045566
90	0x3e23e91c	0.16006893
91	0x3e1effe9	0.1552731
92	0x3df3aa91	0.11897767
93	0xbdc80bee	-0.097679004
94	0xbe49c61c	-0.19704479
95	0xbe90f54a	-0.2831214
96	0xbd906771	-0.0705098
97	0xbe6b4ef5	-0.22979338
98	0x3e312e7f	0.17302893
99	0xbe876748	-0.26445985
100	0xbcfbceee	-0.03073832
101	0x3e6ef1d0	0.23334432
102	0xbc6ae33a	-0.014336402
103	0xbda65639	-0.081219144
104	0xbd0a92a2	-0.033831246
105	0xbd09afa2	-0.033614762
106	0xbe82facc	-0.25581968
107	0x3df13121	0.11776949
108	0xbe9802fd	-0.2968978
109	0x3e416d1b	0.18889277
110	0xbe985a03	-0.29756173
111	0x3dfc3b4d	0.12315998
112	0x3e25435b	0.16138975
113	0xbd267f96	-0.04064902
114	0xbdf69632	-0.12040366
115	0x3e7746ec	0.24148148
116	0x3d2a15ed	0.041524816
117	0x3d74eae0	0.059794307
118	0x3e18f9dc	0.14939064
119	0x3c837980	0.016049147
120	0xbe37c2a0	-0.17945337
121	0x3cdeecf0	0.02721259
122	0xbe19ffab	-0.15038936
123	0xbe77d492	-0.24202183
124	0xbe80169d	-0.25017253
125	0xbd814612	-0.06312193
126	0xbe792c31	-0.24333264
127	0xbd5b8c2c	-0.053600475
128	0xbdc1c7ee	-0.09461962
129	0xbe8bf98c	-0.27338827
130	0x3e62c4b7	0.22145353
131	0x3e3942a1	0.18091823
132	0x3e6693d4	0.2251733
133	0x3e6ca386	0.23109254
134	0x3e009364	0.12556225
135	0xbe4e088e	-0.20120451
136	0x3e3187bf	0.1733694
137	0xb91b9c00	-0.00014840066
138	0xbdcbb1df	-0.099460356
139	0x3e415860	0.18881369
140	0xbe4754c7	-0.19465934
141	0x3e472ea3	0.19451384
142	0x3e5b1272	0.21393755
143	0xbe0a5049	-0.13507189
144	0xbdc8ff4a	-0.098143175
145	0x3e7277ef	0.23678564
146	0xbe508396	-0.20362696
147	0xbd864e9a	-0.06557961
148	0x3e2c61da	0.16834202
149	0xbe483609	-0.19551863
150	0xbe3b56dd	-0.18294854
151	0xbdf64fb2	-0.120269194
152	0xbe5c0c82	-0.21489146
153	0xbd13af41	-0.036055807
154	0x3e700b83	0.23441891
155	0x3e1bfb37	0.1523255
156	0xbc2c3546	-0.010510748
157	0xbdf3d65d	-0.11906121
158	0x3dbac3d1	0.0911938
159	0x3e32c0ac	0.17456311
160	0xbdcc99a9	-0.09990246
161	0x3d48fe4b	0.049070638
162	0xbd6c256e	-0.057652883
163	0xbe35743d	-0.17720123
164	0x3de8092b	0.11329874
165	0xbe7c78d3	-0.24655466
166	0x3d378f2c	0.044814274
167	0x3e4fd423	0.20295767
168	0xbe32fab4	-0.17478448
169	0xbe4f6e83	-0.20257
170	0x3e4dc957	0.20096336
171	0x3e28a44b	0.16468923
172	0xbdf64eea	-0.120267704
173	0x3e5ec8b1	0.21756245
174	0x3e4a0962	0.19730142
175	0xbda5e22b	-0.08099779
176	0xbdfd379a	-0.12364121
177	0xbe63d960	-0.2225089
178	0xbe3ca112	-0.18420818
179	0x3e1a7748	0.15084565
180	0x3e3a8d4c	0.18217963
181	0xbdc5743a	-0.09641309
182	0xbddb2a41	-0.10701419
183	0x3e87177e	0.2638511
184	0x3e90dee2	0.28295046
185	0x3d435a2d	0.04769342
186	0x3ea39833	0.31952056
187	0x3e93f709	0.2889941
188	0xbe0dd592	-0.13851002
189	0x3e827bbb	0.25485024
190	0xbd1bf46a	-0.03807489
191	0xbd231320	-0.03981316
192	0xbd9cf6c8	-0.07664257
193	0xbdb551b6	-0.08853476
194	0x3c931ea3	0.017958945
195	0xbe120b37	-0.1426209
196	0xbe860763	-0.2617751
197	0xbe8b2750	-0.2717843
198	0x3ce5939a	0.028024483
199	0x3e722804	0.23648077
200	0xbe4d3b04	-0.20042044
201	0xbe8bda09	-0.27314785
202	0xbdb9f77d	-0.09080408
203	0x3dbf30eb	0.09335502
204	0x3e457a11	0.19284846
205	0xbdb9dd85	-0.090754546
206	0xbe8b6385	-0.27224365
207	0xbde0a790	-0.1096946
208	0x3cfd42d2	0.030915651
209	0x3ddd244e	0.1079794
210	0x3e3c95fd	0.18416591
211	0xbe0eace4	-0.1393314
212	0x3db22632	0.086986914
213	0xbda02ccf	-0.078210466
214	0xbe84e0f5	-0.2595288
215	0xbd956acd	-0.07295761
216	0xbdf4e292	-0.11957277
217	0xbdabc958	-0.08388013
218	0x3e61834c	0.22022742
219	0xbe423755	-0.1896642
220	0x3d9c21d3	0.07623639
221	0x3e485eb0	0.1956737
222	0x3da7130f	0.08157932
223	0xbd196b3a	-0.037455775
224	0xbe8080c9	-0.25098255
225	0x3e88226b	0.2658876
226	0xbd54205b	-0.05178867
227	0xbe61fd57	-0.22069298
228	0xbe252ddc	-0.16130775
229	0xb98df25b	-0.00027074185
230	0xbe0a3b38	-0.13499153
231	0x3cf31cad	0.02967676
232	0xbe317cc7	-0.17332755
233	0x3e327256	0.17426428
234	0xbdc70809	-0.097183295
235	0x3d08dcfc	0.033413872
236	0x3e575169	0.2102715
237	0x3e0fb5eb	0.1403424
238	0xbdf25d96	-0.11834256
239	0xbb4626e7	-0.003023559
240	0xbe8d2195	-0.27564684
241	0xba4ffe88	-0.00079343515
242	0x3dc04489	0.09388072
243	0xbcbbd8fc	-0.022930615
244	0x3d99456f	0.074839465
245	0x3e159e5d	0.14611192
246	0xbe012688	-0.12612355
247	0xbe06738e	-0.13130018
248	0x3e04909f	0.12945794
249	0x3e50dbf6	0.20396408
250	0xbe5035f7	-0.20333086
251	0xbe3b02c9	-0.18262781
252	0xbe562356	-0.20911917
253	0xbdd475de	-0.10374044
254	0x3e2efc62	0.17088464
255	0xbe0ae4a2	-0.13563779

hidden_layer_1.bias f4 [100]
0	0x3e5e0bce	0.2168419
1	0xbe842a49	-0.2581351
2	0x3e6d05d5	0.23146756
3	0xbe31a619	-0.17348517
4	0xbd9e5bf5	-0.07732383
5	0xbe685eba	-0.22692385
6	0xbe39ce1a	-0.18145028
7	0xbd5d39d0	-0.054010212
8	0x3e8dac47	0.276705
9	0x3b955500	0.004557252
10	0x3d48b6ca	0.049002446
11	0x3d77bf0e	0.06048494
12	0x3e10baf1	0.14133812
13	0x3def33cc	0.11679801
14	0xbd313a6f	-0.043268617
15	0x3cb3c661	0.02194518
16	0x3e4b2be1	0.19840957
17	0x3e6e9892	0.23300388
18	0x3b8f328f	0.0043700407
19	0xbac69e8f	-0.0015153455
20	0xbd707c7e	-0.058712475
21	0x3da30c6c	0.07961354
22	0x3e1fb8c6	0.15597829
23	0x3ced796f	0.028988568
24	0xbcf24d10	-0.029577762
25	0xbe55b981	-0.20871545
26	0xbcf80056	-0.030273598
27	0xbde7ee5a	-0.11324759
28	0x3e8d1e6c	0.27562273
29	0xbe894070	-0.26806974
30	0xbe28b630	-0.16475749
31	0x3e3dc2b6	0.18531308
32	0x3e83b3bb	0.2572306
33	0x3e0309f5	0.12796767
34	0x3e1b370b	0.15157716
35	0xbe35550a	-0.17708221
36	0xbd86bd54	-0.0657908
37	0x3de0f6f0	0.109845996
38	0xbe1a0c02	-0.15043643
39	0x3dff3381	0.124609955
40	0xbc140037	-0.009033254
41	0x3e89787a	0.2684973
42	0xbd6286ed	-0.055304457
43	0x3e32d4ad	0.17463942
44	0x3e5aafce	0.21356127
45	0x3e04104f	0.12896846
46	0xbe8239f6	-0.25434846
47	0xbe5b00c6	-0.21387014
48	0x3c3e9804	0.011632923
49	0xbdc127c3	-0.09431412
50	0x3d99cad1	0.07509387
51	0x3e73c078	0.2380389
52	0x3e49f9de	0.19724223
53	0x3d56459a	0.05231247
54	0xbe3d2770	-0.18472075
55	0x3d88d67a	0.06681533
56	0x3e8327ab	0.25616202
57	0xbe1de257	-0.15418373
58	0xbd97d4d6	-0.07413642
59	0xbe2d8fbf	-0.16949366
60	0xbe3c0f70	-0.18365264
61	0x3df88d5f	0.121363394
62	0xbde440a5	-0.111451425
63	0x3c8ecb13	0.017430818
64	0x3e23625d	0.15955491
65	0x3e40e122	0.18835881
66	0x3db502b5	0.08838407
67	0x3e47a049	0.19494738
68	0x3e89c9b0	0.26911688
69	0x3dfabfe8	0.122436345
70	0xbd74e42e	-0.05978792
71	0xbd61443d	-0.054996718
72	0xbe0d1c69	-0.13780369
73	0x3df5f479	0.1200952
74	0x3ddca100	0.10772896
75	0x3da0fbf7	0.078605585
76	0x3cd5a4c7	0.026079549
77	0xbe4efc55	-0.20213445
78	0x3e1909ca	0.1494514
79	0xbcf26d0e	-0.029593017
80	0xbca23cec	-0.01980444
81	0xbe4b153c	-0.19832319
82	0x3c3bb828	0.0114574805
83	0x3e6ecc2f	0.23320077
84	0xbe419804	-0.18905646
85	0xbe3c13cd	-0.18366928
86	0x3e65e6dd	0.22451349
87	0xbe272ac7	-0.16324912
88	0xbd29ab71	-0.041423265
89	0xbda5c2f6	-0.080938265
90	0xbd2ee104	-0.04269506
91	0x3dd7e70c	0.105421156
92	0xbd7e8c68	-0.06214562
93	0x3e66f28c	0.22553462
94	0xbd4cb6dd	-0.04997908
95	0xbdc1de72	-0.09466256
96	0x3e287cd2	0.16453865
97	0xbd38c234	-0.04510708
98	0x3e0c56ab	0.13704936
99	0x3d80cf0a	0.062894896

hidden_layer_2.weight f4 [50, 100]
0	0xbdbd2660	-0.09235835
1	0xbd9c759a	-0.07639618
2	0x3cacc0a7	0.021087958
3	0xbd80325a	-0.06259604
4	0xbd9d694d	-0.076861
5	0x3dc7786a	0.09739764
6	0xbde27c16	-0.11058824
7	0x3d60df4f	0.054900464
8	0x3daae99b	0.08345338
9	0xbca64628	-0.020297125
10	0x3dcc3b58	0.099722564
11	0xbe0529a3	-0.13004164
12	0xbc9fec1e	-0.01952177
13	0x3d85c778	0.06532186
14	0xbe3136a0	-0.17305994
15	0xbd2d43f8	-0.04230115
16	0x3cf1b681	0.02950597
17	0xbcfb02f5	-0.030641058
18	0xbcc844e2	-0.024446908
19	0x39449cab	0.0001875038
20	0x3d30c3b9	0.043155406
21	0x3c257652	0.010099011
22	0xbd8166e6	-0.063184544
23	0xbd36ea79	-0.044657204
24	0x3d880eb1	0.06643427
25	0xbd3cbc38	-0.046077937
26	0x3c036601	0.008019925
27	0xbd828fa7	-0.06375056
28	0x3d8962ca	0.06708296
29	0xbdc8a1ff	-0.09796523
30	0x3e0df8dd	0.13864465
31	0x3df03d67	0.117304616
32	0xbe163ef0	-0.14672446
33	0x3cedc0fe	0.02902269
34	0xbdf895ff	-0.121379845
35	0xbce489f3	-0.02789781
36	0x3d81017f	0.062991135
37	0x3d2d8902	0.04236699
38	0x3d9e347f	0.077248566
39	0x3e5a7799	0.21334685
40	0x3dd6cc9a	0.104882434
41	0x3d778e1e	0.060438268
42	0x3d8b3180	0.06796551
43	0xbdf072b8	-0.11740631
44	0x3db1b2ed	0.086767055
45	0xbdb09c50	-0.08623564
46	0x3d2a9a29	0.041650925
47	0xbdd74bed	-0.105125286
48	0x3dc996dc	0.09843227
49	0xbd947755	-0.07249323
50	0x3e16abe3	0.14714007
51	0xbdcf4db1	-0.1012224
52	0xbcb01623	-0.02149493
53	0xbd04aeda	-0.032393314
54	0xbcf613eb	-0.030038795
55	0xbd3c1b37	-0.04592439
56	0x3ce6d5d4	0.028178133
57	0x3dbcb381	0.09213925
58	0xbc62491a	-0.013811374
59	0x3e29a0bc	0.16565222
60	0x3c7eb80d	0.015546811
61	0xbc786ea6	-0.015163099
62	0x3d6b9435	0.057514388
63	0xbdcdb929	-0.10045082
64	0xbdb96abf	-0.09053563
65	0x3d82db87	0.06389528
66	0xbd43723f	-0.047716375
67	0x3d9bf371	0.07614792
68	0xbd618081	-0.05505419
69	0x3dcc31a7	0.09970408
70	0xbd2898a0	-0.04116118
71	0x3c6a221a	0.014290357
72	0xbde6dea0	-0.11272931
73	0xbde91623	-0.11381175
74	0x3d8d4db2	0.06899585
75	0x3d4081bd	0.046998728
76	0x3d9a00bd	0.07519672
77	0x3d7c8714	0.061652258
78	0xbd3c7726	-0.046012066
79	0x3d34215b	0.043977123
80	0xbdb71c7a	-0.08940978
81	0x3d86dadc	0.06584713
82	0x3da1ec68	0.07906419
83	0xbd353b0e	-0.044245772
84	0xbd299d9d	-0.041410077
85	0x3d81e521	0.06342531
86	0x3c8a5d60	0.016890228
87	0x3da20694	0.07911411
88	0x3e267f69	0.1625954
89	0xbc3ebae1	-0.011641235
90	0x3db774e5	0.08957843
91	0xbcf589cf	-0.029972939
92	0x3d32c686	0.043646358
93	0xbdb43bce	-0.08800469
94	0xbd35e84e	-0.044410996
95	0x3dac84c4	0.084237605
96	0xbbfae9d5	-0.0076572695
97	0x3cdee275	0.027207593
98	0xbdef3885	-0.11680702
99	0xbca075d5	-0.019587437
100	0x3dbfab7b	0.09358879
101	0xbdc27f4f	-0.094969384
102	0xbd64cd31	-0.05585975
103	0x3d9b2009	0.075744696
104	0x3d7d054c	0.06177263
105	0x3d1d7b95	0.038447935
106	0xba69ad6e	-0.00089140877
107	0x3cc19654	0.023631252
108	0x3c8fa8be	0.017536517
109	0x3d217652	0.03941948
110	0xbbde9090	-0.0067921355
111	0xbd2c5d79	-0.04208133
112	0xbdc69c8b	-0.09697827
113	0xbd89ab28	-0.067220986
114	0xbb8cb367	-0.0042938474
115	0xbca6e834	-0.020374395
116	0x3d9bd68e	0.076092824
117	0x3dab8e71	0.08376778
118	0xbd56a0ec	-0.05239956
119	0x3d82e26d	0.063908435
120	0xbc81f657	-0.015864534
121	0x3b3f7a1c	0.002921707
122	0x3d541a54	0.05178292
123	0xbda6afe1	-0.08139015
124	0x3db9979d	0.09062121
125	0xbab03386	-0.001344309
126	0x3c84ff5b	0.016235044
127	0x3c9776be	0.018489238
128	0xbd4431ff	-0.047899242
129	0x3dd2b1c8	0.10287815
130	0x3df409a9	0.11915905
131	0xbd780fd3	-0.060561966
132	0xbd5fe46e	-0.054661207
133	0x39105fcd	0.00013768599
134	0xbcb8d4f2	-0.022562478
135	0xbdc5cea4	-0.09658554
136	0x3cc1f734	0.023677446
137	0x3d9ac572	0.07557191
138	0x3d087924	0.033318654
139	0x3da10d15	0.07863823
140	0xbd71323c	-0.058885798
141	0xbc574c31	-0.013140724
142	0xbdc515b0	-0.09623277
143	0xbd4ce3b1	-0.05002183
144	0x3c19246e	0.009347064
145	0x3da53da1	0.080683954
146	0xbdb740fd	-0.089479424
147	0x3d39483c	0.045234904
148	0xbda18563	-0.078867696
149	0x3c4233cf	0.011853172
150	0xbdb47db4	-0.088130385
151	0xbde5c7ff	-0.11219787
152	0xbcdaaf38	-0.026694879
153	0xbd5d1f30	-0.05398482
154	0x3ca77a7c	0.020444147
155	0x3dc8cf3d	0.098051526
156	0xbd9599fb	-0.0730476
157	0xbd4b1701	-0.049582485
158	0xbd8bd6ff	-0.068281166
159	0x3dbef091	0.09323228
160	0x3d47fa71	0.048822824
161	0x3da06ba2	0.07833029
162	0x3ce98269	0.028504567
163	0x3daaf1fb	0.08346935
164	0x3d429004	0.047500625
165	0x3d9d9a94	0.07695499
166	0xbdc3ca2a	-0.09560044
167	0x3d8ac472	0.0677575
168	0xbda1f5be	-0.079082
169	0x3c4b960a	0.012425909
170	0xbd115423	-0.03548063
171	0xbaf7ed73	-0.001891537
172	0xbcbb2c07	-0.022848142
173	0x3d9fc481	0.07801152
174	0x3d1e68c9	0.03867415
175	0xbb255949	-0.002523022
176	0xbd68cc6f	-0.056835588
177	0x3d7a3a56	0.06109079
178	0xbb25926a	-0.0025264272
179	0x3d914405	0.07093052
180	0xbdbd25d9	-0.092357345
181	0xbda8cfde	-0.082427725
182	0x3a35896c	0.00069250795
183	0xbb3e3ac5	-0.0029026729
184	0x3bc7839b	0.0060886866
185	0xbdbb0bf7	-0.091331415
186	0xbd511e04	-0.051054016
187	0x3d91430d	0.07092867
188	0xbbc8b1fa	-0.006124732
189	0xbda77694	-0.08176914
190	0x3daf2fbf	0.08554029
191	0xbc72c7b6	-0.014818123
192	0x3dd25505	0.102701224
193	0xbdaf6fb0	-0.085662246
194	0xbc053762	-0.00813088
195	0xbc5cc7a8	-0.013475336
196	0xbdca6743	-0.09882977
197	0x3cb49719	0.022044705
198	0x3d75176f	0.0598368
199	0xbd54b114	-0.051926687
200	0x3cbc0e03	0.0229559
201	0x3b5b9f11	0.003351156
202	0xbbaa2646	-0.005192551
203	0x3ccb0b98	0.024785802
204	0x3caaf7e0	0.02087015
205	0xbcb84653	-0.02249447
206	0xbd1a9600	-0.037740707
207	0x3d46318c	0.048387095
208	0xbda50c29	-0.0805896
209	0x3dc0bca7	0.094109826
210	0xbd2373ef	-0.039905485
211	0xbd1f96dc	-0.03896223
212	0x3d18a65f	0.03726804
213	0x3c88555a	0.016642261
214	0x3d136857	0.035988178
215	0xbda35393	-0.07974925
216	0xbcca4d14	-0.024694957
217	0xbd901e59	-0.07037038
218	0xbd993925	-0.074816026
219	0xbc5991c0	-0.013279378
220	0xbc72747e	-0.014798282
221	0xbcc06099	-0.023483561
222	0x3dbfd8a3	0.09367492
223	0xbdc541ed	-0.09631715
224	0x3d4f3e62	0.050596602
225	0x3d5ecc64	0.05439414
226	0xbda9904b	-0.08279475
227	0xbd9fdc16	-0.0780565
228	0x3c31094d	0.01080544
229	0x3cdc528c	0.02689483
230	0xb8af9a10	-8.373347e-05
231	0x3d41ab33	0.04728241
232	0xbd3f3ca7	-0.046688702
233	0xbdcc91ca	-0.099887446
234	0xbd121f66	-0.035674475
235	0xbbf0e0b6	-0.0073510064
236	0xbcc787ee	-0.024356809
237	0xbd3a0c68	-0.045421988
238	0xbcfb93b6	-0.030710083
239	0x3dc95ff7	0.09832757
240	0xbd14dc20	-0.03634274
241	0x3c8b7770	0.017024726
242	0xbc05db04	-0.008169893
243	0xbd8f6f52	-0.070036545
244	0xbd00979b	-0.031394582
245	0x3cb86bf1	0.022512408
246	0x3db8ca06	0.09022908
247	0x3d84cbbb	0.06484171
248	0x3d499434	0.049213603
249	0x3d69d028	0.05708328
250	0xbd867921	-0.06566072
251	0xbdc0d7a3	-0.094161294
252	0xbdc74b3c	-0.09731147
253	0xbd94898b	-0.07252797
254	0x3d2da1e0	0.042390704
255	0xbd092d8f	-0.033490714

hidden_layer_2.bias f4 [50]
0	0x3c69ff4a	0.014282057
1	0x3d3bc01c	0.045837507
2	0xbcb786fd	-0.022403235
3	0x3d120c2c	0.03565614
4	0x3d8e9024	0.069610864
5	0x3db53e8c	0.088498205
6	0xbc826edb	-0.015922
7	0xbdc17bfe	-0.09447478
8	0x3dcc9151	0.099886544
9	0x3cc73a4f	0.024319796
10	0x3c9b3e22	0.018950526
11	0x3da2d933	0.07951584
12	0xbbcc0827	-0.006226558
13	0x3a92357d	0.0011154857
14	0x3d5708f6	0.05249878
15	0x3dad04ca	0.08448179
16	0xbabd72c6	-0.0014453761
17	0x3c7c0570	0.015382156
18	0xbd15596f	-0.036462244
19	0xbdb398d5	-0.08769385
20	0x3d652cc2	0.055950888
21	0x3c1c00e6	0.009521699
22	0x3d21cb55	0.039500553
23	0x3cbd48f8	0.023106083
24	0x3995b2e6	0.00028552784
25	0x3cdd16e5	0.026988456
26	0xbd3a5fa3	-0.045501363
27	0x3cb2aec2	0.021811847
28	0x3c826ee9	0.015922027
29	0xbdc0e577	-0.09418767
30	0xbba704ca	-0.0050970064
31	0x3cbeed38	0.023306474
32	0xbd341900	-0.043969154
33	0x3d600b0f	0.054698046
34	0xbdaf5e82	-0.08562948
35	0xbc92201c	-0.017837577
36	0xbca53515	-0.020166913
37	0xbdc230ef	-0.094819896
38	0xbc5f134d	-0.0136154415
39	0x3ceb4889	0.02872111
40	0x3d2b9bb1	0.041896526
41	0x3d6c7ca9	0.057736073
42	0x3d9c27a8	0.07624751
43	0xbd0a7457	-0.033802357
44	0x3dabce23	0.08388927
45	0x3d469ec8	0.04849127
46	0x3dcc5234	0.099766165
47	0x3d987b8e	0.07445441
48	0xbce84fb5	-0.02835832
49	0xbd953419	-0.072853275

output_layer.weight f4 [1, 50]
0	0x3f029a95	0.51017123
1	0x3e0e0c64	0.13871914
2	0x3d2564f0	0.040379465
3	0xbe415837	-0.18881308
4	0xbe265977	-0.16245066
5	0x3e3967a9	0.1810595
6	0xbe6f1b2c	-0.23350209
7	0x3d91ec8f	0.07125198
8	0x3ea37486	0.31924838
9	0xbd69a1d2	-0.05703909
10	0x3e627dd2	0.22118309
11	0xbe92b9db	-0.2865742
12	0xbea92655	-0.33037058
13	0x3cf937e6	0.030422162
14	0xbd890cbb	-0.06691881
15	0x3df5c77f	0.120009415
16	0xbe044af9	-0.12919225
17	0x3dc683b0	0.09693086
18	0xbe0cd6ff	-0.1375389
19	0x3e8a263f	0.26982304
20	0xbe6aca4b	-0.22928731
21	0xbdbb0be6	-0.09133129
22	0x3de801c3	0.11328461
23	0xbe58e394	-0.21180564
24	0x3eb05eaf	0.34447238
25	0x3e61f670	0.22066665
26	0xbebc50f0	-0.367805
27	0x3eb22167	0.3479111
28	0xbe9c0b22	-0.30477244
29	0xbe934e1d	-0.28770533
30	0xbe896871	-0.26837495
31	0xbd8c9f79	-0.068663545
32	0x3e4e2111	0.20129801
33	0xbea27bb8	-0.31735015
34	0xbe2c8cb6	-0.16850552
35	0x3ce4bcc6	0.027922045
36	0x3e928789	0.2861903
37	0xbdd93a7f	-0.1060686
38	0x3e45ddd5	0.19322903
39	0x3e00c1eb	0.12573974
40	0xbe1a2f51	-0.15057112
41	0xbcdb2059	-0.026748823
42	0xbdd1b7d1	-0.10240138
43	0x3ebd3715	0.36956087
44	0xbdf243e4	-0.11829355
45	0x3e9aae3d	0.30211058
46	0xbccf3c0e	-0.025297191
47	0xbd1f6933	-0.038918685
48	0xbdae7086	-0.08517556
49	0x3d1f0872	0.038826413
