soru5_model.pt (torch, 28279 bytes, 5 tensors)

hidden_layer_1.weight f4 [100, 13]
0.22859822 -0.12764797 0.04807628 -0.20972711 -0.1446734 0.027502105 0.16419846 0.23677386
-0.20782448 0.16756149 0.21203105 0.28238785 -0.040828153 0.031670965 0.24515024 -0.26097023
0.2541474 -0.11875911 0.21483374 0.08409172 -0.21343783 0.13502164 -0.20038047 0.04812659
0.19001159 0.11320424 -0.030718504 0.034414772 0.0054309154 -0.27546287 -0.1379432 0.22158656
0.14969109 0.17218207 0.02982611 0.19233187 0.16463912 -0.10862893 -0.066245854 -0.25761104
0.2703924 -0.13104013 0.25959757 -0.19420293 -0.20704995 -0.15704222 0.20253044 -0.10252478
-0.07071208 0.13995413 -0.19272697 0.14860164 -0.19166419 0.06842452 -0.16118397 -0.27963915
0.21571513 0.08902977 -0.18763529 0.2151859 0.03611915 -0.010351738 -0.23511776 0.07025296
0.09581315 -0.07546457 0.016403139 -0.1861008 -0.116631255 0.2065292 0.20338248 0.21028727
-0.09819103 0.086470835 0.30008805 0.14889105 -0.09888027 0.08941776 0.027984794 0.03152067
-0.27620026 -0.12281282 -0.25664467 0.25943637 -0.002239367 0.16384698 -0.028809948 -0.1185544
0.09852733 0.031017378 0.15486698 0.15451393 0.119632885 -0.09765979 -0.19663729 -0.28277612
-0.07108181 -0.22979145 0.17368585 -0.26387024 -0.030195937 0.23500751 -0.013566779 -0.08081834
-0.0447382 -0.038760494 -0.27854773 0.14839014 -0.29802027 0.1358912 -0.29475582 0.13964014
0.1587106 -0.031627268 -0.12361768 0.24603052 0.05318266 0.059794307 0.14939064 0.016049147
-0.17945337 0.02721259 -0.15038936 -0.24202183 -0.25017253 -0.06312193 -0.24333264 -0.053600475
-0.09461962 -0.27338827 0.22038323 0.1784158 0.2340607 0.21961989 0.11016373 -0.1990299
0.17452386 -0.004022393 -0.11079168 0.18484744 -0.19453722 0.19252157 0.20762889 -0.14028135
-0.09620024 0.2345587 -0.20644547 -0.077412926 0.16049182 -0.19670866 -0.18706755 -0.1325763
-0.21414053 -0.02850839 0.22546059 0.16525081 -0.011913814 -0.11988703 0.08857994 0.17657201
-0.0985217 0.054183632 -0.059806135 -0.17116673 0.114358366 -0.25436112 0.04507274 0.19901979
-0.1729805 -0.20718127 0.18974523 0.16700353 -0.12891613 0.2080036 0.20338747 -0.07957925
-0.12803917 -0.22318009 -0.1838807 0.1435468 0.18276514 -0.09602147 -0.10222066 0.26038438
0.2778569 0.05491122 0.32279947 0.28814006 -0.14538732 0.2550827 -0.034528077 -0.03725043
-0.07670336 -0.08383214 0.017992707 -0.14267454 -0.26178077 -0.2717785 0.027967105 0.23636883
-0.20045409 -0.2731289 -0.090966105 0.093231134 0.19282775 -0.09085109 -0.27227694 -0.109712414
0.030154333 0.10701461 0.19022797 -0.13897008 0.08624192 -0.07415541 -0.25764194 -0.07598499
-0.1181563 -0.08511844 0.22247778 -0.1864356 0.0766729 0.20477581 0.07898255 -0.030585391
-0.25006327 0.26386717 -0.05426791 -0.21698551 -0.16514786 0.0022904708 -0.136358 0.027361952
-0.17516191 0.17725186 -0.10101059 0.039389234 0.211773 0.14531247 -0.118476346 -0.0065356446
-0.28252384 -0.004346342 0.09505161 -0.027788857 0.077278845 0.14441109 -0.122674264 -0.13262221
0.1279995 0.20307885 -0.20514776 -0.18125159 -0.20752682 -0.10408845 0.17049693 -0.13585377
00000000: a715 6a3e 26b6 02be a2eb 443d b4c2 56be
00000010: 4425 14be 184c e13c a423 283e d974 723e
00000020: f1cf 54be 3d95 2b3e ab1e 593e 2495 903e
00000030: 6c3b 27bd 6ab9 013d aa08 7b3e e49d 85be
00000040: 9c1f 823e fa37 f3bd 60fd 5b3e 4838 ac3d
00000050: 728f 5abe 1d43 0a3e 8a30 4dbe 6320 453d
00000060: 6692 423e a0d7 e73d 5fa5 fbbc 81f6 0c3d
00000070: d2f5 b13b 7809 8dbe fb40 0dbe 96e7 623e
00000080: 9f48 193e 7f50 303e e355 f43c a5f2 443e
00000090: 2897 283e d878 debd e8ab 87bd 98e5 83be
000000a0: df70 8a3e 622f 06be f9e9 843e 22dd 46be
000000b0: e704 54be adcf 20be 2464 4f3e 83f8 d1bd
000000c0: 7fd1 90bd 2350 0f3e 385a 45be 072b 183e
000000d0: 9e43 44be 2822 8c3d 690d 25be dd2c 8fbe
000000e0: 6de4 5c3e 3d55 b63d 7723 40be b159 5c3e
000000f0: adf1 133d 569a 29bc b6c2 70be c9e0 8f3d
00000100: af39 c43d 2b8d 9abd e05f 863c 3591 3ebe
00000110: 5edc eebd 647c 533e 7f43 503e 8c55 573e
00000120: 6118 c9bd 9f17 b13d 24a5 993e e576 183e
00000130: bd81 cabd a920 b73d 5e40 e53c d11b 013d
00000140: 1f6a 8dbe 4a85 fbbd ee66 83be d8d4 843e
00000150: 58c2 12bb 81c7 273e d702 ecbc a6cc f2bd
00000160: b2c8 c93d 2818 fe3c 7395 1e3e e638 1e3e
00000170: 1602 f53d db01 c8bd 495b 49be 08c8 90be
00000180: 5793 91bd 734e 6bbe b4da 313e 001a 87be
00000190: 785d f7bc cfa5 703e 3247 5ebc 1684 a5bd
000001a0: 673f 37bd 53c3 1ebd cf9d 8ebe 96f3 173e
000001b0: 1d96 98be 1027 0b3e 3cea 96be d3fd 0e3e
000001c0: 0885 223e 988b 01bd 442b fdbd 6def 7b3e
000001d0: 10d6 593d e0ea 743d dcf9 183e 8079 833c
000001e0: a0c2 37be f0ec de3c abff 19be 92d4 77be
000001f0: 9d16 80be 1246 81bd 312c 79be 2c8c 5bbd
00000200: eec7 c1bd 8cf9 8bbe 24ac 613e a2b2 363e
00000210: 9cad 6f3e 09e4 603e 869d e13d 7ece 4bbe
00000220: 62b6 323e 47ce 83bb c0e6 e2bd a648 3d3e
00000230: c434 47be 6024 453e ab9c 543e eaa5 0fbe
00000240: a204 c5bd 2830 703e 7166 53be ab8a 9ebd
00000250: f857 243e ff6d 49be a38e 3fbe 15c2 07be
00000260: a847 5bbe 6d8a e9bc 24df 663e 8237 293e
00000270: 2832 43bc 5587 f5bd 6669 b53d 4bcf 343e
00000280: bfc5 c9bd a8ef 5d3d 47f7 74bd 5546 2fbe
00000290: b834 ea3d 9f3b 82be 329e 383d d8cb 4b3e
000002a0: cd21 31be 5427 54be 934c 423e f902 2b3e
000002b0: 9702 04be e5fe 543e ce44 503e 72fa a2bd
000002c0: b31c 03be 5289 64be 394b 3cbe effd 123e
000002d0: c926 3b3e e8a6 c4bd 1159 d1bd 1a51 853e
000002e0: 4243 8e3e 96ea 603d f945 a53e 1887 933e
000002f0: 6ae0 14be 339a 823e 506d 0dbd e893 18bd
00000300: a716 9dbd 2fb0 abbd 7165 933c 4619 12be
00000310: 2108 86be 8d26 8bbe 451b e53c ac0a 723e
00000320: d643 4dbe 8dd7 8bbe 704c babd f7ef be3d
00000330: a374 453e 2310 babd e267 8bbe e7b0 e0bd
00000340: 3806 f73c 7a2a db3d 1fcb 423e 2c4e 0ebe
00000350: 9b9f b03d cbde 97bd a5e9 83be 059e 9bbd
00000360: eefb f1bd 9452 aebd 37d1 633e f9e8 3ebe
00000370: ae06 9d3d c0b0 513e 9ac1 a13d 378e fabc
00000380: 4b08 80be 9919 873e 0748 5ebd 7331 5ebe
00000390: 851c 29be b91b 163b 6ea1 0bbe 2c26 e03c
000003a0: a55d 33be 8381 353e a4de cebd 9b56 213d
000003b0: 05db 583e cbcc 143e baa3 f2bd f628 d6bb
000003c0: f7a6 90be c26b 8ebb 6baa c23d 75a5 e3bc
000003d0: 5f44 9e3d 80e0 133e a53c fbbd 1ece 07be
000003e0: 4d12 033e e7f3 4f3e 4112 52be 049a 39be
000003f0: e981 54be 532c d5bd bf96 2e3e 401d 0bbe

hidden_layer_1.bias f4 [100]
0.21634944 -0.25819722 0.23188591 -0.17340049 -0.07749602 -0.22703445 -0.18141037 -0.053974625
0.27680525 0.004557252 0.048468817 0.060196485 0.1414086 0.1164333 -0.043465603 0.02194309
0.19842732 0.23311771 0.004499127 -0.0015475792 -0.058996394 0.079356804 0.155358 0.028823743
-0.029577762 -0.20914645 -0.030262612 -0.11241291 0.27574286 -0.26883614 -0.16461113 0.18500134
0.2573267 0.12796986 0.1515797 -0.17716354 -0.06601186 0.10961591 -0.15067108 0.12457354
-0.008573806 0.26818272 -0.055507887 0.17458345 0.21362275 0.12877196 -0.25452086 -0.2133788
0.011551752 -0.09453128 0.07546502 0.23772487 0.19705439 0.052267905 -0.18477021 0.066729285
0.25616202 -0.15424417 -0.07395137 -0.16923602 -0.18341151 0.12138608 -0.111915916 0.01742513
0.15955348 0.18826309 0.08818342 0.19537996 0.26970023 0.123676665 -0.05953971 -0.054877445
-0.13816775 0.12001516 0.107859924 0.07866879 0.026377877 -0.20238523 0.14957793 -0.029565848
-0.020232707 -0.19816875 0.011403136 0.23315868 -0.18904047 -0.18343054 0.22456522 -0.16307771
-0.04139518 -0.08094958 -0.04269506 0.10487332 -0.06208577 0.22520487 -0.050278656 -0.094228394
0.16453508 -0.044706475 0.13699955 0.06328177
00000000: b58a 5d3e 6d32 84be 8073 6d3e e68f 31be
00000010: 3cb6 9ebd b87b 68be a4c3 39be 7f14 5dbd
00000020: 6bb9 8d3e 0055 953b 3d87 463d 9790 763d
00000030: 6bcd 103e 9574 ee3d fd08 32bd ffc1 b33c
00000040: 8830 4b3e 69b6 6e3e 6a6d 933b 24d8 caba
00000050: 34a6 71bd d285 a23d 2b16 1f3e c51f ec3c
00000060: 104d f2bc 7d2a 56be 4ce9 f7bc bd38 e6bd
00000070: 2b2e 8d3e e4a4 89be d28f 28be fe70 3d3e
00000080: 53c0 833e 880a 033e b537 1b3e 5c6a 35be
00000090: 3a31 87bd 4e7e e03d 8549 1abe 6a20 ff3d
000000a0: 2679 0cbc 3f4f 893e 3d5c 63bd 01c6 323e
000000b0: ecbf 5a3e ccdc 033e 8f50 82be f97f 5abe
000000c0: 8f43 3d3c 9e99 c1bd 688d 9a3d 266e 733e
000000d0: a0c8 493e df16 563d 6734 3dbe 5da9 883d
000000e0: ab27 833e 2ff2 1dbe d173 97bd 354c 2dbe
000000f0: 3ad0 3bbe 4499 f83d 2c34 e5bd 25bf 8e3c
00000100: fd61 233e 0ac8 403e 8299 b43d af11 483e
00000110: 2616 8a3e 314a fd3d e9df 73bd 2cc7 60bd
00000120: d97b 0dbe 82ca f53d aae5 dc3d 1a1d a13d
00000130: 6b16 d83c 133e 4fbe f52a 193e 1434 f2bc
00000140: 10bf a5bc c0ec 4abe 38d4 3a3c 26c1 6e3e
00000150: d393 41be 37d5 3bbe 6df4 653e d8fd 26be
00000160: fe8d 29bd e5c8 a5bd 04e1 2ebd d3c7 d63d
00000170: a64d 7ebd 1b9c 663e fef0 4dbd d1fa c0bd
00000180: e27b 283e 231e 37bd 9c49 0c3e df99 813d

hidden_layer_2.weight f4 [50, 100]
-0.062377557 -0.0869129 0.057536777 -0.058274835 -0.075406276 0.11437456 -0.11777365 0.05575458
0.09077854 -0.020297125 0.10183405 -0.1303467 -0.03401959 0.06839508 -0.17022492 -0.042309713
0.032087523 -0.038542613 -0.037658166 -7.215103e-05 0.043628413 0.00055561913 -0.06458481 -0.04029155
0.06643427 -0.044863623 0.034378733 -0.08058904 0.072979316 -0.090101585 0.13675255 0.112027854
-0.14318301 0.029114416 -0.11721447 -0.026169041 0.06575897 0.050222732 0.07432076 0.21762465
0.08327957 0.04723748 0.077603765 -0.1215675 0.082112305 -0.089477755 0.04398734 -0.09048878
0.102358714 -0.082861476 0.14178158 -0.10920515 -0.01703177 -0.032011595 -0.02348088 -0.044575237
0.028178133 0.08574347 -0.026978703 0.17550167 0.014941492 -0.013343404 0.060482733 -0.10054769
-0.08816568 0.064163715 -0.053500522 0.09237805 -0.051935814 0.093685895 -0.03744119 0.015783215
-0.1098098 -0.116343096 0.085522965 0.047670756 0.08081816 0.078328535 -0.052061483 0.050549414
-0.094477 0.066721104 0.08469948 -0.045485638 -0.041493367 0.0533974 0.02952857 0.066954106
0.15606724 -0.012330941 0.08957843 -0.04082056 0.04593219 -0.09385612 -0.041538633 0.09366378
-0.0077203377 0.03316281 -0.10879279 -0.03206872 0.09939013 -0.097290434 -0.056241024 0.07470382
0.06270477 0.038364816 -0.0012095779 0.023755057 0.018072434 0.03941948 -0.005757139 -0.0420929
-0.0969276 -0.067761905 -0.013373651 -0.020383693 0.07585885 0.083244115 -0.053205542 0.064126864
-0.014270027 0.0016569556 0.048548386 -0.08687943 0.09062121 0.00044640416 0.017356962 0.014873552
-0.0483481 0.103714086 0.12537886 -0.059657756 -0.0576043 3.391082e-05 -0.02265313 -0.09660206
0.022573974 0.07883447 0.029906074 0.07888299 -0.061223418 -0.013975353 -0.097773045 -0.05084169
0.010501933 0.0779908 -0.08785386 0.046412844 -0.07548764 0.01297533 -0.087716155 -0.11394332
-0.027713748 -0.05398482 0.022681797 0.09825942 -0.0730476 -0.04843856 -0.06904655 0.09465722
0.048583735 0.07819539 0.029187154 0.0830511 0.047492795 0.07757683 -0.09737239 0.068419516
-0.07907296 0.011399951 -0.04016862 -0.0019222158 -0.022276193 0.07676449 0.04173255 -0.0027548166
-0.057400975 0.062946275 -0.0029515566 0.0697644 -0.09280296 -0.082555294 0.006216332 -0.0029083055
0.0060913144 -0.091852225 -0.051155962 0.067668304 -0.0037709628 -0.081715934 0.08554029 -0.009661365
0.104217835 -0.08700249 -0.011942276 -0.011632309 -0.09882977 0.02172872 0.05717224 -0.055275228
0.023077266 0.0025482432 -0.0057908655 0.024785802 0.021032961 -0.022163413 -0.037896845 0.04838702
-0.08055488 0.094109826 -0.039224096 -0.038929798 0.037172705 0.01650644 0.035435464 -0.07974925
-0.024694957 -0.070422515 -0.07486956 -0.013279378 -0.014899725 -0.023706451 0.093010046 -0.097394176
0.050596602 0.054229774 -0.08270722 -0.07834783 0.010825358 0.026674595 0.0006840064 0.047499653
-0.0471554 -0.099887595 -0.035593797 -0.007330429 -0.024385447 -0.045933634 -0.030382194 0.09865434
-0.03642933 0.017647408 -0.009093327 -0.070029914 -0.032061458 0.022294732 0.08993354 0.06414804
0.048936766 0.056485638 -0.06580949 -0.09504846 -0.09814289 -0.07252797 0.042026144 -0.03348905
00000000: 9c7f 7fbd 64ff b1bd afab 6b3d 98b1 6ebd
00000010: 9b6e 9abd 363d ea3d 5033 f1bd ea5e 643d
00000020: 19ea b93d 2846 a6bc 5f8e d03d 9b79 05be
00000030: 2058 0bbd b812 8c3d 714f 2ebe f34c 2dbd
00000040: 356e 033d dcde 1dbd 733f 1abd ca4f 97b8
00000050: b5b3 323d f8a6 113a 0a45 84bd c108 25bd
00000060: b10e 883d ebc2 37bd b7d0 0c3d de0b a5bd
00000070: 2e76 953d 2e87 b8bd dc08 0c3e dc6e e53d
00000080: 919e 12be 5b81 ee3c 240e f0bd 7560 d6bc
00000090: a4ac 863d 5ab6 4d3d 7c35 983d ffd8 5e3e
000000a0: 7b8e aa3d 167c 413d b9ee 9e3d 62f8 f8bd
000000b0: 7f2a a83d 1d40 b7bd 122c 343d 2e52 b9bd
000000c0: 72a1 d13d 47b3 a9bd 312f 113e f3a6 dfbd
000000d0: 3686 8bbc 971e 03bd f95a c0bc 8694 36bd
000000e0: d4d5 e63c 469a af3d 7102 ddbc b6b6 333e
000000f0: 29cd 743c 4b9e 5abc bebc 773d f3eb cdbd
00000100: 3590 b4bd 4468 833d 5d23 5bbd b430 bd3d
00000110: a6ba 54bd 64de bf3d ef5b 19bd cd4b 813c
00000120: f6e3 e0bd 4a45 eebd aa26 af3d 6942 433d
00000130: fe83 a53d b66a a03d 6c3e 55bd e70c 4f3d
00000140: 287d c1bd 13a5 883d ec76 ad3d 264f 3abd
00000150: f3f4 29bd 3bb7 5a3d e6e5 f13c 3c1f 893d
00000160: 17d0 1f3e b707 4abc e574 b73d 7633 27bd
00000170: 6423 3c3d a337 c0bd 6a24 2abd ccd2 bf3d
00000180: e3fa fcbb bad5 073d c1ce debd 7d5a 03bd
00000190: 0d8d cb3d 3540 c7bd fd5c 66bd 51fe 983d
000001a0: 5c6b 803d 6d24 1d3d b38a 9eba f799 c23c
000001b0: a40c 943c 5276 213d 62a6 bcbb 9b69 2cbd
000001c0: fa81 c6bd c1c6 8abd 281d 5bbc b4fb a6bc
000001d0: e25b 9b3d e47b aa3d 0eee 59bd f254 833d
000001e0: d5cc 69bc 342e d93a acda 463d d8ed b1bd
000001f0: 9d97 b93d 5a0b ea39 3030 8e3c 33b0 733c
00000200: a808 46bd 0d68 d43d 5163 003e b15b 74bd
00000210: 7df2 6bbd 773b 0e38 0f93 b9bc 4dd7 c5bd
00000220: 0eed b83c f773 a13d 95fd f43c 688d a13d
00000230: 68c5 7abd e1f8 64bc 3c3d c8bd 603f 50bd
00000240: 4d10 2c3c a4b9 9f3d b9ec b3bd 651b 3e3d
00000250: 4499 9abd 7b96 543c 87a4 b3bd 1e5b e9bd
00000260: f107 e3bc 301f 5dbd 2dcf b93c 3c3c c93d
00000270: fb99 95bd 8367 46bd 4768 8dbd a5db c13d
00000280: bdff 463d e824 a03d e619 ef3c b216 aa3d
00000290: ce87 423d 9ae0 9e3d 2d6b c7bd 881f 8c3d
000002a0: 01f1 a1bd dcc6 3a3c da87 24bd dcf2 fbba
000002b0: 907c b6bc b336 9d3d c0ef 2a3d 278a 34bb
000002c0: 491d 6bbd fae9 803d e76e 41bb a3e0 8e3d
000002d0: 7a0f bebd c012 a9bd 5fb2 cb3b 4599 3ebb
000002e0: a699 c73b 051d bcbd ea88 51bd ae95 8a3d
000002f0: 4222 77bb af5a a7bd bf2f af3d b44a 1ebc
00000300: 2970 d53d 5d2e b2bd 89a9 43bc 7195 3ebc
00000310: 4367 cabd 6e00 b23c 702d 6a3d 4768 62bd
00000320: 890c bd3c 6d00 273b 4dc1 bdbb 980b cb3c
00000330: 514d ac3c 0c90 b5bc b939 1bbd 7831 463d
00000340: f5f9 a4bd a7bc c03d 72a9 20bd da74 1fbd
00000350: 6842 183d 8338 873c c724 113d 9353 a3bd
00000360: 144d cabc ae39 90bd 3655 99bd c091 59bc
00000370: fa1d 74bc 0834 c2bc 0d7c be3d 9976 c7bd
00000380: 623e 4f3d 0a20 5e3d 6762 a9bd d474 a0bd
00000390: d85c 313c ae84 da3c e44e 333a ff8e 423d
000003a0: 0526 41bd de91 ccbd cdca 11bd 1834 f0bb
000003b0: fdc3 c7bc e824 3cbd 14e4 f8bc 490b ca3d
000003c0: ec36 15bd 4c91 903c 2efc 14bc d86b 8fbd
000003d0: e052 03bd 71a3 b63c 132f b83d 0c60 833d
000003e0: eb71 483d 7c5d 673d 20c7 86bd c4a8 c2bd
000003f0: 24ff c8bd 8b89 94bd 9b23 2c3d d02b 09bd

hidden_layer_2.bias f4 [50]
0.015132416 0.046000607 -0.022413958 0.03544524 0.06969776 0.08844064 -0.015258887 -0.09450096
0.09936055 0.024332268 0.019104363 0.07942438 -0.0063548125 0.0010333421 0.05249878 0.08449944
-0.0014572538 0.015382156 -0.03673841 -0.08771927 0.055574823 0.009504913 0.039557133 0.022865094
0.00049056497 0.028264709 -0.046478003 0.021832326 0.015987676 -0.09467923 -0.0056060357 0.023306474
-0.043939378 0.05399272 -0.08586411 -0.017897107 -0.019840464 -0.094833 -0.014202769 0.028779628
0.041764706 0.057736076 0.076259315 -0.033068646 0.08366695 0.048883162 0.09964997 0.07433535
-0.028407663 -0.072905585
00000000: f4ed 773c 226b 3c3d 7a9d b7bc 072f 113d
00000010: b3bd 8e3d 5e20 b53d 6900 7abc b889 c1bd
00000020: 8b7d cb3d 7754 c73c c180 9c3c 40a9 a23d
00000030: 083c d0bb 3571 873a f608 573d 0b0e ad3d
00000040: 5301 bfba 7005 7c3c 047b 16bd 29a6 b3bd
00000050: 6da2 633d 7fba 1b3c a906 223d 944f bb3c
00000060: 4299 003a 648b e73c b85f 3ebd b5d9 b23c
00000070: 96f8 823c 2fe7 c1bd d6b2 b7bb 38ed be3c
00000080: c7f9 33bd 7827 5d3d 86d9 afbd f49c 92bc
00000090: 7888 a2bc ce37 c2bd bbb2 68bc 41c3 eb3c
000000a0: 7811 2b3d aa7c 6c3d d82d 9c3d fd72 07bd
000000b0: 9459 ab3d b639 483d 4915 cc3d 223d 983d
000000c0: 30b7 e8bc 864f 95bd

output_layer.weight f4 [1, 50]
0.5058523 0.15826091 0.045656063 -0.22664642 -0.15022303 0.17658284 -0.25813314 0.07132862
0.31147796 -0.057008967 0.21972515 -0.28472286 -0.31750935 0.0331806 -0.06691881 0.11639062
-0.12917793 0.09693086 -0.16158716 0.2842102 -0.22013535 -0.091315396 0.1145069 -0.22385997
0.34660572 0.26658335 -0.3918042 0.32636678 -0.3156654 -0.26734868 -0.26520103 -0.068663545
0.20446394 -0.3161047 -0.17655347 0.021405187 0.29618093 -0.1118786 0.18910612 0.12581544
-0.15412243 -0.026749488 -0.09998929 0.37302905 -0.13150053 0.2738936 -0.019354852 -0.032719355
-0.08723183 0.033216894
00000000: 897f 013f 260f 223e da01 3b3d 0016 68be
00000010: 11d4 19be 22d2 343e 072a 84be bd14 923d
00000020: 0a7a 9f3e 3c82 69bd a1ff 603e 32c7 91be
00000030: 9690 a2be 61e8 073d bb0c 89bd 355e ee3d
00000040: 3847 04be b083 c63d 1b77 25be 0084 913e
00000050: 296b 61be 9103 bbbd 9882 ea3d 8c3b 65be
00000060: 4e76 b13e 9d7d 883e 8f9a c8be 8c19 a73e
00000070: e59e a1be ede1 88be 6ec8 87be 799f 8cbd
00000080: ff5e 513e 7ad8 a1be 6fca 34be ee59 af3c
00000090: 07a5 973e 9c20 e5bd 09a5 413e c3d5 003e
000000a0: 45d2 1dbe be21 dbbc 2fc7 ccbd aafd be3e
000000b0: 13a8 06be c83b 8c3e 118e 9ebc bb04 06bd
000000c0: 9aa6 b2bd 700e 083d
