soru6_model.pt (torch, 28343 bytes, 5 tensors)

hidden_layer_1.weight f4 [100, 13]
0.06734633 -0.03594443 0.05085562 -0.08042559 -0.10348756 0.018183889 -0.08823237 0.17662245
-0.1758189 0.01548065 -0.01906811 0.10268937 -0.06738756 -0.019243352 0.06457544 -0.17813522
0.10180222 -0.085782535 0.067660384 0.04736659 -0.09915796 0.041469365 -0.12570804 0.013159922
0.009547853 0.01294739 -0.03525748 -0.036789827 0.026107624 -0.24133447 -0.11585037 -0.064962655
0.3090215 -0.029004786 0.044039875 0.09652432 0.0319042 -0.032697994 -0.0018661668 -0.13379428
0.121477835 -0.061231114 0.10287128 -0.08891295 -0.11675352 -0.09133513 0.09547396 -0.074077375
-0.044206403 0.06225552 -0.100261435 0.057327893 -0.11961338 -0.0068759257 -0.023651792 -0.19954696
0.13886683 0.06824462 -0.124334954 0.06352104 -0.030556343 0.0453767 -0.08896866 0.0665264
0.037648194 -0.09543797 0.008657017 -0.105554685 -0.054301526 0.086806625 0.055932567 -0.021451361
-0.112415604 0.06544243 0.10830852 0.031214682 -0.086497374 0.021285456 0.04066631 0.029740369
-0.15661408 -0.049951255 -0.09754826 0.115104064 -0.066970006 0.13500324 0.006038295 -0.14648172
0.03640955 -0.09739369 0.0074264314 0.077847995 0.05282019 -0.053948637 -0.0989064 -0.14182378
-0.03549773 -0.11483412 0.07970913 -0.12735483 -0.00813205 0.12154012 -0.009607605 -0.039476924
-0.018976847 -0.029667178 -0.09835377 0.119054444 -0.17564371 -0.053065695 -0.22934128 0.12180971
0.12839523 -0.08601406 -0.012173987 0.06956711 0.028877188 0.029484628 0.07366457 0.007913836
-0.08848874 0.013418513 -0.07415606 -0.11934117 -0.12335957 -0.031125536 -0.1199874 -0.026430363
-0.046656795 -0.13480633 0.08510524 0.04749715 0.086418 0.09663079 0.020014945 -0.081357725
0.007493328 -0.024636336 -0.084932156 0.052523468 -0.11867466 0.05823338 0.06500509 0.020087224
-0.04450855 0.11255821 -0.073735915 -0.03262377 0.06029688 -0.20589384 -0.063406505 -0.12635328
-0.06633932 0.034664504 0.12715524 0.040785898 -0.043471407 -0.04876793 0.024194544 0.09947669
-0.03488386 -0.004820961 -0.033588503 -0.09790636 0.048290815 -0.12874687 0.0101359915 0.08183497
-0.07813275 -0.08559719 0.08625585 0.013039336 -0.111392885 0.1396488 0.07822927 -0.13952754
-0.047861483 -0.12342741 0.01415767 0.034797184 0.08225353 0.012479384 -0.08767929 0.013029588
0.06851984 -0.031002171 0.12215975 0.04158217 -0.18549538 0.098505676 -0.17215869 0.01712504
-0.022137957 0.051490128 0.032729715 -0.06767179 -0.12777472 -0.13155928 0.018804476 0.12381302
-0.09587428 -0.13307276 -0.039858345 0.050961748 0.102520496 -0.041519348 -0.13303462 -0.05191894
0.09122158 0.10054084 0.13415413 0.018428922 0.0061864587 -0.037353694 -0.02839499 -0.03280167
-0.2931198 -0.02772284 0.04163962 -0.12383605 0.09082006 0.02115496 0.009777258 -0.050145436
-0.12555768 0.18879968 0.006357885 -0.09397813 -0.08561945 -0.019035123 -0.050880264 0.037237328
-0.09299226 0.050857157 -0.0013039727 0.010624529 0.09659163 0.06671194 -0.06529124 -0.009409163
-0.1098 0.026480436 -0.08200343 -0.008619202 0.007035983 0.09209261 -0.06786606 -0.062316008
0.063093334 0.096565954 -0.10164678 -0.09106491 -0.10589389 -0.05141097 0.083407976 -0.06373571
00000000: dfec 893d 773a 13bd fc4d 503d 2cb6 a4bd
00000010: 49f1 d3bd 61f6 943c 2cb3 b4bd 84dc 343e
00000020: df09 34be 8da2 7d3c ba34 9cbc ce4e d23d
00000030: 7d02 8abd 3ca4 9dbc 2140 843d 1469 36be
00000040: af7d d03d c1ae afbd 8791 8a3d 7803 423d
00000050: 5413 cbbd c8db 293d 9cb9 00be b79c 573c
00000060: 996e 1c3c 4a21 543c 266a 10bd eeb0 16bd
00000070: a8df d53c 6220 77be f542 edbd 240b 85bd
00000080: 1138 9e3e 729b edbc 2863 343d 8bae c53d
00000090: faad 023d 55ee 05bd 2b9a f4ba 5e01 09be
000000a0: 5fc9 f83d 7acd 7abd 2dae d23d fe17 b6bd
000000b0: 781c efbd ea0d bbbd da87 c33d e1b5 97bd
000000c0: c611 35bd a5ff 7e3d de55 cdbd a7d0 6a3d
000000d0: dcf7 f4bd 724f e1bb 67c1 c1bc 0a56 4cbe
000000e0: 1b33 0e3e d6c3 8b3d 53a3 febd 5217 823d
000000f0: 4c51 fabc ebdc 393d 3335 b6bd fe3e 883d
00000100: fe34 1a3d fb74 c3bd 29d6 0d3c 0e2d d8bd
00000110: 476b 5ebd acc7 b13d 8c19 653d c4ba afbc
00000120: 273a e6bd ae06 863d dbd0 dd3d efb5 ff3c
00000130: 8925 b1bd d65e ae3c b791 263d 13a2 f33c
00000140: 715f 20be b099 4cbd 62c7 c7bd aebb eb3d
00000150: 9227 89bd 4a3e 0a3e e4dc c53b 4eff 15be
00000160: 2e22 153d 5876 c7bd 6c59 f33b c56e 9f3d
00000170: fc59 583d 3ff9 5cbd 708f cabd 413a 11be
00000180: 1166 11bd 272e ebbd 8a3e a33d 4e69 02be
00000190: 4a3c 05bc 07ea f83d 3769 1dbc 8eb2 21bd
000001a0: 5575 9bbc 9508 f3bc b46d c9bd d1d2 f33d
000001b0: f2db 33be 6a5b 59bd 71d8 6abe 5f77 f93d
000001c0: 0a7a 033e 2428 b0bd 6775 47bc 3379 8e3d
000001d0: da8f ec3c bf89 f13c 73dd 963d 09a9 013c
000001e0: 9639 b5bd 53d9 5b3c 22df 97bd 2569 f4bd
000001f0: f1a3 fcbd fbfa febc f4bb f5bd 7d84 d8bc
00000200: 321b 3fbd ac0a 0abe a84b ae3d 5f8c 423d
00000210: ecfb b03d 5de6 c53d 62f6 a33c e19e a6bd
00000220: 978a f53b 24d2 c9bc e9f0 adbd d922 573d
00000230: b30b f3bd 2086 6e3d 6321 853d f68d a43c
00000240: 994e 36bd eb84 e63d db02 97bd 81a0 05bd
00000250: dcf9 763d d6d5 52be 45db 81bd c162 01be
00000260: e9dc 87bd 5efc 0d3d fc34 023e 1d0f 273d
00000270: 130f 32bd e2c0 47bd a333 c63c 6fba cb3d
00000280: 61e2 0ebd 27f9 9dbb 1994 09bd 2183 c8bd
00000290: 97cc 453d 38d6 03be 6e11 263c 1899 a73d
000002a0: 1004 a0bd 944d afbd e8a6 b03d f0a2 553c
000002b0: f421 e4bd 1800 0f3e ab36 a03d 4fe0 0ebe
000002c0: 670a 44bd 83c7 fcbd 92f5 673c 7e87 0e3d
000002d0: 8a74 a83d 5576 4c3c 3391 b3bd 0e7a 553c
000002e0: 2154 8c3d 44f8 fdbc e42e fa3d 1152 2a3d
000002f0: 80f2 3dbe 58bd c93d 5e4a 30be d049 8c3c
00000300: a95a b5bc 50e7 523d 980f 063d 8297 8abd
00000310: 60d7 02be 7ab7 06be d80b 9a3c ae91 fd3d
00000320: bc59 c4bd 3a44 08be 8142 23bd 44bd 503d
00000330: 44f6 d13d 3110 2abd 3a3a 08be f4a8 54bd
00000340: 61d2 ba3d 5be8 cd3d b35f 093e 40f8 963c
00000350: c7b7 ca3b 3000 19bd 9c9c e8bc 0b5b 06bd
00000360: cc13 96be 021b e3bc 4e8e 2a3d c19d fdbd
00000370: deff b93d 2b4d ad3c cb30 203c 4d65 4dbd
00000380: 3192 00be b454 413e ce55 d03b 9b77 c0bd
00000390: 4059 afbd 8cef 9bbc d367 50bd 2b86 183d
000003a0: ba72 bebd 984f 503d 10ea aaba 8112 2e3c
000003b0: d5d1 c53d 45a0 883d 6ab7 85bd e428 1abc
000003c0: d3de e0bd 80ed d83c 6af1 a7bd 8e37 0dbc
000003d0: 1a8e e63b 0d9b bc3d 5cfd 8abd 123f 7fbd
000003e0: 1437 813d 5fc4 c53d 302c d0bd 3d80 babd
000003f0: e5de d8bd 4f94 52bd cdd1 aa3d de87 82bd

hidden_layer_1.bias f4 [100]
0.10351099 -0.12913392 0.1115228 -0.086445555 -0.04016003 -0.114966884 -0.09028072 -0.026574489
0.13995126 0.002247152 0.021757437 0.027940413 0.06882201 0.05631578 -0.022280278 0.0111051295
0.09950515 0.11417556 0.00014994177 -0.00079439685 -0.033148795 0.038247712 0.07346609 0.011099938
-0.014584733 -0.10107735 -0.01634479 -0.05570019 0.13639966 -0.1369429 -0.07971215 0.09085527
0.12611958 0.06343023 0.07433755 -0.0876036 -0.04162652 0.053135876 -0.076223664 0.058831263
0.00333242 0.12288549 -0.02939691 0.08492568 0.10275516 0.0612871 -0.12716107 -0.10656198
0.0053457734 -0.048948474 0.046055432 0.11491176 0.09704876 0.025858695 -0.09247071 0.03295576
0.12631293 -0.07825177 -0.035612717 -0.079378 -0.09137492 0.05969732 -0.0608187 0.008339832
0.07848001 0.09092188 0.0391386 0.09790073 0.13834448 0.0634408 -0.031950224 -0.0307337
-0.07349286 0.057478108 0.056645058 0.03896779 0.011377007 -0.10303132 0.066348 -0.024479678
-0.021293296 -0.09730751 0.0075147953 0.11463286 -0.093506075 -0.084588945 0.11187091 -0.081269726
-0.021014925 -0.039825123 -0.021053031 0.050710816 -0.030314943 0.10987974 -0.029085336 -0.047322147
0.080852345 -0.021497238 0.06634268 0.03213999
00000000: 92fd d33d af3b 04be 1166 e43d 5e0a b1bd
00000010: d87e 24bd c273 ebbd 19e5 b8bd beb2 d9bc
00000020: 624f 0f3e f444 133b a73c b23c 4be3 e43c
00000030: 8ef2 8c3d 60ab 663d 2185 b6bc 4af2 353c
00000040: 5bc9 cb3d e0d4 e93d b039 1d39 123f 50ba
00000050: 08c7 07bd a2a9 1c3d 6475 963d 84dc 353c
00000060: cef4 6ebc a401 cfbd 82e5 85bc e225 64bd
00000070: 5aac 0b3e c23a 0cbe 2040 a3bd 5412 ba3d
00000080: 7e25 013e b5e7 813d 493e 983d 8469 b3bd
00000090: 9280 2abd 01a5 593d 271b 9cbd 0df9 703d
000000a0: bb64 5a3b 63ab fb3d cad1 f0bc 84ed ad3d
000000b0: 4c71 d23d 2f08 7b3d 8336 02be 2b3d dabd
000000c0: 992b af3b 327e 48bd 9fa4 3c3d db56 eb3d
000000d0: 80c1 c63d 9dd5 d33c 4961 bdbd 9efc 063d
000000e0: 2d58 013e 7742 a0bd a4de 11bd ef90 a2bd
000000f0: c622 bbbd 2d85 743d 071d 79bd caa3 083c
00000100: 21ba a03d 4035 ba3d cc4f 203d 2e80 c83d
00000110: 2daa 0d3e 40ed 813d 3dde 02bd 3ec5 fbbc
00000120: 6d83 96bd 2a6e 6b3d a604 683d b09c 1f3d
00000130: a066 3a3c 1602 d3bd 76e1 873d 9b89 c8bc
00000140: 476f aebc 2949 c7bd ac3e f63b a2c4 ea3d
00000150: 1d80 bfbd f83c adbd 931c e53d be70 a6bd
00000160: 7e27 acbc ab1f 23bd 6877 acbc 25b6 4f3d
00000170: 0b57 f8bc a108 e13d 5f44 eebc ded4 41bd
00000180: ea95 a53d fa1a b0bc acde 873d 39a5 033d

hidden_layer_2.weight f4 [50, 100]
-0.058501016 -0.045486946 0.062883876 -0.037952885 -0.048105538 -0.011706122 -0.00395753 0.03260805
0.05807912 -0.010008412 0.0052160886 -0.06386649 -0.006934274 -0.008552429 -0.061159257 -0.021423299
-0.03208407 -0.023685161 -0.029126562 -0.0012908112 0.0080471365 0.018061714 -0.02377427 0.0045665144
0.03275876 0.019662399 -0.016669724 -0.040132027 0.02259794 0.003110133 0.10316289 0.058630988
-0.05817649 0.01114326 -0.055731352 -0.015717303 -0.0071558324 0.010427826 -0.0005783274 0.03799313
0.08215342 -0.013816794 0.1082053 -0.014117619 0.079346 0.004074499 0.0090211835 0.028011847
0.028574197 -0.042078957 0.10450137 -0.0011837175 0.046823796 -0.015881285 -0.011086707 -0.027332103
0.013894634 0.016238239 0.015496262 0.102208376 -0.012072908 0.037311792 -0.0033674478 -0.04743788
-0.05202513 -0.0073084277 0.005420203 0.060609624 -0.00079683185 0.05947619 0.01960326 0.006972988
-0.035304643 -0.061671685 0.05538789 0.024183236 0.05178035 0.009059755 -0.0038154998 -0.011091274
-0.006456021 0.031664852 0.08180219 0.023915587 -0.021202354 0.03308196 0.044900693 0.0104857925
0.05457818 0.000893424 0.04417085 0.013144188 0.041893393 -0.010214227 -0.019048473 0.009796667
-0.0039649103 0.024677943 -0.059235122 0.00037254152 0.05439492 -0.03103067 -0.05370597 0.038799845
0.04881798 0.0438549 -0.02473449 0.0076037757 -0.014445022 0.019437637 0.0184944 -0.0065709664
-0.048519317 -0.0135720335 0.03491026 -0.009465604 0.082060196 0.05186644 -0.009648846 0.039007075
0.025088875 -0.0014193393 0.06356954 -0.023943903 0.04468548 -0.02582217 0.035635386 0.017908169
-0.0104757855 0.044535775 0.0026834204 -0.037528735 0.0047533712 0.005783149 0.013631869 -0.04536277
0.042472027 0.040926125 0.04827661 0.018495789 -0.039105285 0.024626933 -0.05576259 -0.024347171
-0.018895386 0.052121814 -0.038900618 -0.016801354 -0.034533814 0.017646328 -0.064144365 -0.023136819
-0.02855105 -0.026718127 0.020712657 0.053033575 -0.036019534 -0.047155034 -0.040263895 -0.002550712
0.046337955 0.00038950794 0.030057013 0.04128964 0.02099984 0.04663022 -0.05418359 -0.007057066
-0.04804958 -0.0022051807 -0.03515392 0.017710876 0.028987888 0.06715064 -0.022467827 -0.00017331276
-0.0243152 0.027904239 0.027313463 0.06532622 -0.03341239 -0.04098406 -0.042411707 -0.031271838
0.0025218015 -0.05711454 -0.05329377 0.04835913 -0.015077118 -0.044497073 0.042179827 -0.006933124
0.03242995 0.0049320366 0.017072283 -0.0016927174 -0.048704084 0.008142819 0.037280604 -0.031491406
0.0125815915 0.0042467485 -0.005529387 0.012312018 0.011883916 -0.011878382 -0.018857785 0.023568526
-0.03939158 0.046405364 -0.026591543 -0.018031769 0.018593958 0.011432242 0.020271754 -0.03929926
-0.009501658 -0.034153923 -0.036314048 -0.0061144102 -0.01125876 -0.009568479 0.053991135 -0.045925602
0.024949178 0.024767205 -0.039830215 -0.03821646 0.0061805085 0.015918314 -0.007407607 0.021735545
-0.02013945 -0.049094837 -0.016612092 -0.003492804 -0.009351031 -0.02153111 -0.014065373 0.043516852
-0.017350404 0.008287621 -0.0035480992 -0.035549246 -0.015858473 0.013494531 0.0473246 0.029294213
0.02358874 0.034347866 -0.034387883 -0.045135103 -0.0471775 -0.03577955 0.02545874 -0.016626367
00000000: c39e 6fbd 8550 3abd 43c9 803d 7c74 1bbd
00000010: 500a 45bd 09cb 3fbc 2bae 81bb 0590 053d
00000020: 5fe4 6d3d 53fa 23bc b9eb aa3b 6fcc 82bd
00000030: e838 e3bb 7d1f 0cbc 2182 7abd ea7f afbc
00000040: 966a 03bd 6207 c2bc d49a eebc 7030 a9ba
00000050: 23d8 033c 29f6 933c 42c2 c2bc b3a2 953b
00000060: 0d2e 063d 0a13 a13c f28e 88bc 7b61 24bd
00000070: 511f b93c 60d3 4b3b 1147 d33d 0c27 703d
00000080: 794a 6ebd 3892 363c 8f46 64bd 93c1 80bc
00000090: 797b eabb 79d9 2a3c e59a 17ba af9e 1b3d
000000a0: 0d40 a83d d65f 62bc be9a dd3d 964d 67bc
000000b0: 2880 a23d 6083 853b 96cd 133c 1a79 e53c
000000c0: 6f14 ea3c fc5a 2cbd d004 d63d f826 9bba
000000d0: 4fca 3f3d 7819 82bc 05a5 35bc 93e7 dfbc
000000e0: 52a6 633c 0e06 853c 09e4 7d3c a052 d13d
000000f0: 72cd 45bc 40d4 183d 66b0 5cbb 394e 42bd
00000100: 4d18 55bd 897b efbb f59b b13b cc41 783d
00000110: 7be2 50ba 4e9d 733d 0497 a03c aa7d e43b
00000120: 9a9b 10bd 739b 7cbd 6ade 623d ec1b c63c
00000130: a217 543d 5e6f 143c 770d 7abb 2db8 35bc
00000140: 088d d3bb 01b3 013d e887 a73d 9fea c33c
00000150: 8fb0 adbc f380 073d cae9 373d 9acc 2b3c
00000160: 5f8d 5f3d ab34 6a3a 7eec 343d b85a 573c
00000170: 6898 2b3d 9359 27bc 8b0b 9cbc 3382 203c
00000180: 14ec 81bb 6629 ca3c 87a0 72bd ad51 c339
00000190: 35cd 5e3d 0834 febc cbfa 5bbd 96ec 1e3d
000001a0: 5df5 473d 32a1 333d fc9f cabc 1829 f93b
000001b0: d0aa 6cbc ae3b 9f3c 9181 973c 4351 d7bb
000001c0: 31bc 46bd 3c5d 5ebc 10fe 0e3d 9f15 1bbc
000001d0: 2d0f a83d e771 543d 3216 1ebc e2c5 1f3d
000001e0: 2f87 cd3c 2009 baba bf30 823d 0126 c4bc
000001f0: 1f08 373d 0489 d3bc 69f6 113d 27b4 923c
00000200: a1a2 2bbc 256b 363d 53dc 2f3b bbb7 19bd
00000210: 2bc2 9b3b 9280 bd3b 3458 5f3c 50ce 39bd
00000220: 26f7 2d3d 27a2 273d b2bd 453d 7b84 973c
00000230: dd2c 20bd 6cbe c93c 5067 64bd b873 c7bc
00000240: 7fca 9abc af7d 553d 4156 1fbd fea2 89bc
00000250: 5473 0dbd 088f 903c 1f5e 83bd 6d89 bdbc
00000260: e4e3 e9bc f9df dabc 97ad a93c bc39 593d
00000270: 3889 13bd a325 41bd c1eb 24bd d929 27bb
00000280: decc 3d3d df36 cc39 203a f63c 531f 293d
00000290: db07 ac3c 54ff 3e3d 9def 5dbd f63e e7bb
000002a0: a3cf 44bd cb84 10bb 8ffd 0fbd 6616 913c
000002b0: 0278 ed3c 4686 893d 730e b8bc 4abb 35b9
000002c0: ac30 c7bc 6e97 e43c 7cc0 df3c c1c9 853d
000002d0: 6edb 08bd e7de 27bd e6b7 2dbd e616 00bd
000002e0: cf44 253b f0f0 69bd 914a 5abd 3914 463d
000002f0: 0406 77bc 9042 36bd c1c4 2c3d 422f e3bb
00000300: 44d5 043d ec9c a13b 2cdb 8b3c 2cde ddba
00000310: ef7d 47bd 7569 053c 8cb3 183d 22fd 00bd
00000320: 0523 4e3c 4f28 8b3b dc2f b5bb 59b8 493c
00000330: c2b4 423c 8c9d 42bc a47b 9abc c812 c13c
00000340: 1159 21bd 8d13 3e3d 82d6 d9bc 5cb7 93bc
00000350: 5b52 983c 4c4e 3b3c f310 a63c 43f8 20bd
00000360: d8ac 1bbc fce4 0bbd 0abe 14bd 645b c8bb
00000370: a976 38bc 1cc5 1cbc cf25 5d3d 7c1c 3cbd
00000380: 3862 cc3c 98e4 ca3c 0225 23bd dd88 1cbd
00000390: dd85 ca3b 2067 823c 83bb f2bb be0e b23c
000003a0: 7dfb a4bc ab17 49bd 1516 88bc 87e7 64bb
000003b0: 1135 19bc 0362 b0bc 7372 66bc ba3e 323d
000003c0: 6f22 8ebc cdc8 073c 3a87 68bb 169c 11bd
000003d0: a1e9 81bc 2a18 5d3c 71d7 413d 6bfa ef3c
000003e0: 2c3d c13c 59b0 0c3d 4fda 0cbd 96df 38bd
000003f0: 323d 41bd 948d 12bd d98e d03c 0534 88bc

hidden_layer_2.bias f4 [50]
0.01941393 0.038874894 -0.010112261 0.02271051 0.035713494 0.05522196 0.00062989886 -0.038925916
0.04400416 0.012571466 0.040166065 0.08045131 0.032233283 0.0012455982 0.026344014 0.060263332
0.0050544143 0.005147772 0.01955549 -0.0119894985 0.04207313 0.0105908355 0.02207633 0.05330238
0.018685557 0.031760525 -0.005539665 0.035689656 0.027483543 -0.012006712 0.0014549155 0.011091905
-0.011446642 0.029710343 -0.017894544 -0.0034956646 0.01920542 -0.04442796 0.013512365 0.024332337
0.046639077 0.03889458 0.061253715 0.015700655 0.05894044 0.036624722 0.054019712 0.03714597
0.011313587 -0.012556653
00000000: f609 9f3c 483b 1f3d e6ad 25bc 640b ba3c
00000010: 5048 123d 6c30 623d cc1f 253a c870 1fbd
00000020: b53d 343d 8df8 4d3c 2c85 243d a8c3 a43d
00000030: 0c07 043d 5743 a33a 67cf d73c afd6 763d
00000040: 809f a53b a4ae a83b d632 a03c 9a6f 44bc
00000050: e054 2c3d 2f85 2d3c 6bd9 b43c 9953 5a3d
00000060: 7412 993c 5317 023d 1486 b5bb 512f 123d
00000070: 2b25 e13c cdb7 44bc ddb2 be3a d2ba 353c
00000080: b28a 3bbc 1b63 f33c 9497 92bc 8517 65bb
00000090: af54 9d3c 18fa 35bd f762 5d3c 9c54 c73c
000000a0: 9e08 3f3d ec4f 1f3d 2de5 7a3d a99e 803c
000000b0: 886b 713d ce03 163d c643 5d3d 5f26 183d
000000c0: a05c 393c 6bba 4dbc

output_layer.weight f4 [1, 50]
0.2625043 -0.19784649 -0.025939249 -0.05839472 -0.03046273 0.33585623 -0.08264059 0.109063596
0.12899518 -0.032508712 0.33034554 -0.36388507 -0.31290638 0.07211942 -0.026629217 0.24195537
-0.08388843 0.038729787 -0.33975467 0.27887312 0.23553829 -0.102954656 0.08017571 -0.35221818
0.25059095 0.22807823 -0.21784768 0.31580326 -0.20414834 -0.30778828 -0.05014599 -0.005074245
0.16864166 -0.033552438 -0.2779501 0.110728465 0.30477762 -0.041487604 -0.22216272 0.30479598
-0.25928116 0.12492789 -0.28913966 0.29657784 -0.23934118 0.2843255 -0.07538085 -0.01662526
-0.23581856 0.26563895
00000000: f766 863e 4598 4abe 8c7e d4bc 4d2f 6fbd
00000010: fa8c f9bc 59f5 ab3e 783f a9bd bc5c df3d
00000020: 5017 043e db27 05bd 0d23 a93e 254f babe
00000030: 4435 a0be 59b3 933d 8425 dabc 26c3 773e
00000040: b2cd abbd 20a3 1e3d 53f4 adbe 75c8 8e3e
00000050: f330 713e e4d9 d2bd 2a33 a43d f155 b4be
00000060: 754d 803e 578d 693e 7613 5fbe f7b0 a13e
00000070: 430c 51be 6d96 9dbe e265 4dbd da45 a6bb
00000080: 66b0 2c3e 486e 09bd 7a4f 8ebe 9bc5 e23d
00000090: d00b 9c3e e8ee 29bd a07e 63be 380e 9c3e
000000a0: 80c0 84be 32da ff3d 1d0a 94be 0dd9 973e
000000b0: db15 75be 1d93 913e 4661 9abd b231 88bc
000000c0: 6c7a 71be d401 883e
