worst_model.pt (torch, 28279 bytes, 5 tensors)

hidden_layer_1.weight f4 [100, 13]
000000 82 a3 93 3e dc 26 12 be f1 5b 7e 3d 21 f0 8a be
       0.28835684 -0.14272636 0.0620994 -0.2713633
000010 27 5f 42 be dd d8 4b 3d 6d 06 2f 3e 1c b6 62 3e
       -0.1898161 0.049767364 0.17092295 0.22139782
000020 a4 94 8e be 27 fd 64 3e ef 50 61 3e f4 8f 9f 3e
       -0.2784778 0.22362195 0.2200353 0.31164515
000030 21 1d 0b bd 5a bf 4c 3c 7c d5 96 3e b7 83 a0 be
       -0.033963326 0.012496794 0.2945975 -0.3135049
000040 28 58 91 3e ed f5 a6 bd 14 2f 51 3e 30 e6 5f 3d
       0.2838757 -0.08152375 0.20428115 0.054662883
000050 19 14 6d be 0d f6 0a 3e 30 02 85 be 1b cf 76 3d
       -0.23152198 0.13570423 -0.2597823 0.060256105
000060 10 73 4a 3e ae c2 10 3e df 24 f1 3c a3 c1 d2 3b
       0.19770455 0.14136764 0.029436527 0.0064317747
000070 98 00 94 3d 1f 17 bc be c8 6b 3b be f9 ca 75 3e
       0.07226676 -0.3673639 -0.18302834 0.24003209
000080 84 11 5a 3e 8e aa 58 3e 8d 26 a0 b9 3c 30 2c 3e
       0.21295744 0.21158811 -0.000305463 0.16815275
000090 1e e0 31 3e b0 fe c9 bd 79 5e ba bd 0d 08 86 be
       0.1737065 -0.09863031 -0.091000505 -0.26178017
0000a0 3a 64 a8 3e 64 9b 15 be 7a 5d 7f 3e de 28 44 be
       0.32888967 -0.14610058 0.24938002 -0.19156215
0000b0 aa 72 59 be 3b 28 0b be 37 89 66 3e e5 53 cf bd
       -0.21235147 -0.13589565 0.22513281 -0.101234235
0000c0 91 6d ac bd ef d6 d2 3d 2b f4 1e be 55 0a 21 3e
       -0.08419336 0.102949016 -0.1552283 0.15726598
0000d0 37 74 83 be 91 aa 4d 3d 89 1d 85 3b e0 d0 cd be
       -0.25674602 0.050211493 0.0040623588 -0.4019842
0000e0 84 20 52 3e 3a 8c ca 3c a1 89 7e be 1f 9b 87 3e
       0.20520216 0.024725068 -0.24857189 0.26485536
0000f0 1d 37 21 3e 6a 58 1a be f9 c8 7c be 8b db 44 3d
       0.1574368 -0.1507279 -0.2468604 0.048060935
000100 97 c2 11 3e f7 e3 b7 bd f0 f3 d6 3c 88 74 4c be
       0.14234386 -0.08979028 0.026239365 -0.19966328
000110 92 59 15 be 42 81 53 3e f1 89 37 3e 15 d8 65 3e
       -0.1458495 0.20654777 0.17923714 0.2244571
000120 27 56 fd bd d2 ff d4 3d 46 c1 ad 3e 65 87 1c 3e
       -0.12369948 0.10400356 0.33936518 0.15286024
000130 82 d9 a4 bd d3 9d bb 3d e6 ce 18 3d 6a 62 0a 3c
       -0.08049299 0.09160962 0.03730669 0.008446315
000140 10 93 b8 be ef 28 48 bd 52 d2 85 be cd 73 93 3e
       -0.360497 -0.048867162 -0.26137024 0.28799286
000150 64 d1 93 bc b5 93 22 3e f5 2e 34 bd ca 43 34 be
       -0.018044181 0.15876658 -0.043990094 -0.17603984
000160 e3 bc 15 3e 1c 63 b3 bb 88 6f 62 3e b5 9f 25 3e
       0.14622836 -0.0054744612 0.22112858 0.16174205
000170 d4 b1 f2 3d 02 7c cc bd 9b 54 49 be 61 80 92 be
       0.11850324 -0.0998459 -0.1966118 -0.2861357
000180 74 8e 94 bd a9 21 6d be 28 32 32 3e 47 5a 84 be
       -0.07253733 -0.23157372 0.17401946 -0.25850126
000190 71 c6 02 bd 4d b7 6f 3e bd 9e 79 bc 43 5a 97 bd
       -0.03192753 0.23409767 -0.0152356 -0.07390263
0001a0 64 22 3a bd ba c8 05 be cb 77 a1 be 6e b5 0b 3e
       -0.045442954 -0.13064852 -0.31536707 0.13643429
0001b0 c9 e3 8f be 22 b9 08 3e ed 75 c0 be 76 d1 46 3e
       -0.28103474 0.13351873 -0.3758997 0.1941584
0001c0 58 c5 08 3e d6 b5 7e 3c c7 53 18 be b4 44 95 3e
       0.1335653 0.015546283 -0.14875709 0.2915398
0001d0 85 54 04 3e e0 ea 74 3d dc f9 18 3e 80 79 83 3c
       0.12922867 0.059794307 0.14939064 0.016049147
0001e0 a0 c2 37 be f0 ec de 3c ab ff 19 be 92 d4 77 be
       -0.17945337 0.02721259 -0.15038936 -0.24202183
0001f0 9d 16 80 be 12 46 81 bd 31 2c 79 be 2c 8c 5b bd
       -0.25017253 -0.06312193 -0.24333264 -0.053600475
000200 ee c7 c1 bd 8c f9 8b be f0 8f 4f 3e 97 64 3c 3e
       -0.09461962 -0.27338827 0.20269752 0.18397747
000210 ff 1b 70 3e c1 70 50 3e 2c 90 a0 3d 46 9b 51 be
       0.2344818 0.20355512 0.078399986 -0.20469388
000220 42 b3 5b 3e dc 12 e8 bc 42 9e 1f be 56 f8 61 3e
       0.214551 -0.028329305 -0.15587714 0.22067389
000230 d5 64 56 be b8 4b 64 3e 91 c4 62 3e b0 00 00 be
       -0.20936902 0.2229451 0.22145297 -0.12500262
000240 b4 d5 c7 bd d9 49 a2 3e 85 98 50 be 85 a8 62 bd
       -0.097575575 0.31696966 -0.20370682 -0.055336494
000250 e5 69 e7 3d 60 20 8a be d0 7a 81 be 56 65 da bd
       0.11299495 -0.26977825 -0.2528901 -0.106638595
000260 43 85 14 be bf 86 7c bd 10 30 4d 3e 1d b0 4d 3e
       -0.1450396 -0.06165194 0.20037866 0.20086713
000270 97 45 6b bc ad 22 0c be 74 4d 08 3e fc 7f 32 3e
       -0.014359853 -0.13685103 0.13310796 0.17431635
000280 8d 0c 09 be 68 e4 5b 3d f5 e8 b0 bd 13 9c 77 be
       -0.13383694 0.053684622 -0.08638183 -0.24180631
000290 f8 2c 5e 3e f5 9a 9c be 65 45 43 bc ea 8c 34 3e
       0.21696842 -0.30586973 -0.0119184 0.1763188
0002a0 b7 e3 17 be 42 0a 83 be dd 70 50 3e 82 8a 29 3e
       -0.1483296 -0.25593764 0.20355554 0.16556743
0002b0 21 8f 0f be 01 c7 7e 3e c2 e7 5c 3e c3 ed 26 bc
       -0.14019443 0.24880601 0.21572784 -0.010188523
0002c0 fb 8c 10 be 9d 64 94 be d1 95 05 be 2a 58 18 3e
       -0.1411628 -0.28983012 -0.13045432 0.14877382
0002d0 a8 e3 4a 3e 14 5a 96 bd 70 0d a7 bd d7 6d 7e 3e
       0.19813406 -0.073414 -0.0815686 0.24846588
0002e0 82 a5 a5 3e a3 e5 08 3d 3a 20 ad 3e 17 97 a6 3e
       0.32352835 0.033422124 0.3381365 0.32537147
0002f0 1c 12 10 be e4 e4 9c 3e b0 8f bf bd 1b 1a 0e bd
       -0.14069408 0.3064338 -0.09353578 -0.034692865
000300 d4 ef a5 bd 50 65 d4 bd 2c 8b ac 3b 01 5d 11 be
       -0.08102384 -0.10370886 0.005265614 -0.14195634
000310 6f d6 85 be 25 74 8a be 59 0b f2 3c 15 a4 74 3e
       -0.26140162 -0.27041736 0.029546427 0.23890717
000320 44 21 4c be 59 3b 8b be 0c c6 b9 bd e3 f4 bf 3d
       -0.19934565 -0.27193716 -0.090709776 0.0937288
000330 34 2d 49 3e a4 94 b9 bd 2b 50 8b be 90 ad de bd
       0.1964615 -0.09061554 -0.272096 -0.10872948
000340 11 c4 35 3d b8 ae 50 3d 06 a7 80 3e 70 31 09 be
       0.044376437 0.050947875 0.2512743 -0.13397765
000350 37 a3 e4 3d 07 bc da bd af f5 73 be ff ae 43 bd
       0.11163943 -0.106803946 -0.2382419 -0.04777431
000360 ef 3a 00 be db 84 74 bd da 60 80 3e 8e b5 65 be
       -0.12522481 -0.059697013 0.25073892 -0.22432539
000370 a9 cb 22 3d 1f d6 8c 3e 9a 29 67 3d 7f 60 fa 3a
       0.039745007 0.2750711 0.05643616 0.0019102244
000380 d6 df 87 be e8 36 90 3e eb 87 ae bd cd c1 3c be
       -0.2653796 0.2816689 -0.08522018 -0.18433304
000390 74 9e 1e be 1c 15 77 3c c8 b6 f5 bd a5 2d 9b 3c
       -0.15490133 0.015080716 -0.119977534 0.018942663
0003a0 ad 14 8c be 18 c0 3f 3e 07 93 ed bd f8 b8 8f 3d
       -0.27359524 0.18725622 -0.11600309 0.07017702
0003b0 0d 94 5d 3e 01 88 3f 3e b9 3e 02 be 27 5a fe 38
       0.21638508 0.18704225 -0.1271924 0.00012128456
0003c0 42 7d 8f be fb f0 80 3b f7 1b 83 3d f7 dd 18 bd
       -0.28025252 0.003934977 0.06401818 -0.037321057
0003d0 86 88 aa 3d e9 a7 58 3e 21 e8 ee bd f3 d3 07 be
       0.08326821 0.21157803 -0.11665369 -0.13264446
0003e0 68 f4 0a 3e 1a ae 53 3e 09 03 4f be df 96 38 be
       0.13569796 0.20671883 -0.20216002 -0.18026303
0003f0 d7 34 56 be 5b a4 d1 bd 25 e6 30 3e 97 34 0b be
       -0.20918594 -0.102364264 0.17275293 -0.1359428

hidden_layer_1.bias f4 [100]
000000 05 73 4f 3e 46 e2 84 be d2 9b 75 3e 9d d6 2f be
       0.2025872 -0.25953883 0.23985222 -0.17171712
000010 a4 38 cb bd f4 6c 6e be 62 7a 3f be 61 2b 5d bd
       -0.09922913 -0.2328375 -0.18699029 -0.053996447
000020 0a 8b 9c 3e 00 55 95 3b d4 33 3a 3d 3a f8 6d 3d
       0.30574828 0.004557252 0.045459583 0.058098055
000030 fb 05 04 3e 91 ec e4 3d 05 3b 82 bd e1 a9 b4 3c
       0.12892906 0.11177934 -0.06358913 0.02205366
000040 45 35 4c 3e ad 99 73 3e df f1 49 3c 6f a2 be ba
       0.19942196 0.23789091 0.012325733 -0.0014544259
000050 60 f8 4a bd b6 26 98 3d 6d b0 10 3e ee d9 f0 3c
       -0.049553275 0.074292585 0.14129801 0.029400792
000060 10 4d f2 bc d3 45 60 be bd 1b db bc db a9 e5 bd
       -0.029577762 -0.21901636 -0.026746625 -0.11214038
000070 f7 73 8e 3e 37 88 92 be 7d e9 24 be 43 4d 3d 3e
       0.2782285 -0.2861955 -0.16104694 0.18486504
000080 a4 b6 85 3e 37 8b 04 3e 51 ae 1a 3e 25 74 35 be
       0.26115906 0.12943731 0.15105559 -0.17720087
000090 3d 0c a2 bd 52 16 cb 3d e3 3a 1a be 84 57 dd 3d
       -0.079124905 0.09916367 -0.15061526 0.10807708
0000a0 ed a8 fa 3b db f9 85 3e cf f9 4d bd b9 f2 37 3e
       0.007649532 0.26167187 -0.050287064 0.17963685
0000b0 e5 0e 62 3e 98 74 fb 3d bf 96 86 be 74 4e 61 be
       0.22075994 0.12278098 -0.26286885 -0.22002584
0000c0 0b d5 fb 3b 74 96 da bd 9e 45 cf 3d de 0f 74 3e
       0.007685309 -0.10673228 0.101207 0.23834178
0000d0 98 1d 4a 3e 2a 0e 56 3d 8e 90 45 be 09 cf 89 3d
       0.19737852 0.0522596 -0.19293424 0.06728942
0000e0 ab 27 83 3e 5f ee 1b be 73 7e 8a bd fc 28 2c be
       0.25616202 -0.1522765 -0.067623995 -0.1681251
0000f0 2a 30 3c be bd 27 f8 3d 60 43 e9 bd 74 0b 90 3c
       -0.18377748 0.121169545 -0.11389804 0.017583586
000100 57 43 1e 3e 27 88 3f 3e 7b ea c0 3d b2 ed 47 3e
       0.15455376 0.18704282 0.094197236 0.19524267
000110 28 1a 8a 3e bd f1 1d 3e 99 cd 40 bd 67 86 38 bd
       0.2697308 0.15424247 -0.047071073 -0.04505005
000120 db 5c 18 be 2a d1 ef 3d b1 61 ef 3d 58 36 a1 3d
       -0.14879172 0.11709817 0.11688555 0.078716934
000130 41 b9 08 3d 27 75 4b be 0e 4d 19 3e c2 f8 e3 bc
       0.033379797 -0.19868909 0.149708 -0.027828578
000140 75 37 22 bd b2 db 46 be 25 b5 8a 3a 3a a3 6e 3e
       -0.03960367 -0.19419745 0.001058255 0.23304453
000150 11 c7 41 be 27 68 21 be 01 df 71 3e e9 45 15 be
       -0.18923594 -0.15762387 0.23620225 -0.1457745
000160 35 da de bc 88 d7 a5 bd 04 e1 2e bd ec 22 ba 3d
       -0.027203659 -0.0809775 -0.04269506 0.09088692
000170 7a e9 7d bd 07 66 63 3e 22 f5 81 bd de b4 ad bd
       -0.06199024 0.22206889 -0.063455835 -0.08481763
000180 7d 7b 28 3e 37 5e 30 bd d9 09 0c 3e f1 d0 96 3d
       0.16453357 -0.0430586 0.13675632 0.07364071

hidden_layer_2.weight f4 [50, 100]
000000 57 4d c9 bc f7 ce 04 be 4f a7 23 3e 98 a8 dc bc
       -0.024573011 -0.12969576 0.15981792 -0.02693586
000010 3f a6 33 be c4 30 ea 3d 0a a0 63 be 99 e9 69 3d
       -0.17543887 0.114350826 -0.22229019 0.05710754
000020 cc f1 36 3e 28 46 a6 bc d1 96 35 3e 23 68 44 be
       0.17865676 -0.020297125 0.17733313 -0.1918035
000030 ee f9 be bd 1e 35 e3 bc ca f2 6a be 9d 41 30 bd
       -0.09325014 -0.02773529 -0.22944179 -0.043031324
000040 ad c3 1b 3b 11 f5 d6 bd e1 35 3e bd b7 30 cf bc
       0.0023767755 -0.104959615 -0.0464381 -0.025291784
000050 2c 74 92 3d b4 60 75 bd 4b 0c a5 bd f6 13 b6 bd
       0.07151064 -0.059906676 -0.08058985 -0.08890526
000060 b1 0e 88 3d 05 00 31 bd 7e 88 87 3d 56 bc 24 be
       0.06643427 -0.04321291 0.06617831 -0.1608747
000070 94 69 53 3d 45 bf dc bd ee fb 49 3e 81 c9 14 3e
       0.05161436 -0.10778669 0.1972501 0.14529993
000080 f2 87 59 be 05 41 56 3a 34 9d f0 bd 8f 27 ec bc
       -0.21243265 0.0008173141 -0.11748734 -0.028827457
000090 54 25 e9 bc 74 ce 82 3d 3c ca 43 3d d8 4e b4 3e
       -0.028460182 0.06387034 0.047800288 0.35216403
0000a0 68 e6 c9 3d 59 b9 a6 3d 15 70 2a 3e b5 72 28 be
       0.098584 0.08140821 0.16644318 -0.16450007
0000b0 cb 5e 7e 3d c9 b2 17 be 18 7e 8c 3c 22 ec dd bd
       0.06210212 -0.14814295 0.01714997 -0.108360544
0000c0 43 ed 18 3e 83 ca cd bd dc 90 65 3e b3 49 0e be
       0.14934258 -0.10048392 0.2241854 -0.13895302
0000d0 62 44 89 bc da e7 02 bd a4 46 b3 3b 46 57 a3 bd
       -0.01675624 -0.031959392 0.0054710675 -0.079756305
0000e0 d4 d5 e6 3c e7 1b 1e 3e b9 f1 86 bd 75 55 6d 3e
       0.028178133 0.15440331 -0.06589074 0.2317713
0000f0 06 9e b2 3d d2 96 ca bb 9b c0 b4 bb 9f 60 cc bd
       0.08721547 -0.00618253 -0.0055161244 -0.099793665
000100 17 53 71 bd e2 89 1d bd 4d 30 b2 bd 21 c7 28 3e
       -0.05891713 -0.038461573 -0.08700619 0.16482212
000110 c2 77 12 bd 11 ec 45 3e f5 91 98 bc c3 a8 64 3d
       -0.03575874 0.19328333 -0.018624285 0.055825006
000120 3f 44 ee bd 36 55 2f be ce 73 1b 3e e8 1f 44 3d
       -0.11634111 -0.17122349 0.15180895 0.04788199
000130 59 cc 14 3e cd 12 ce 3d 77 c2 ce bd 8d b7 d2 3d
       0.14531077 0.1006218 -0.10095685 0.10288916
000140 8e 90 2c be f5 28 c5 3d ca 3d 26 3d 26 71 3c bd
       -0.16852018 0.096269526 0.04058627 -0.046006344
000150 11 51 1f bd 45 71 1f 3d a5 d3 08 3e 73 a1 a6 3d
       -0.03889567 0.03892638 0.13361986 0.08136263
000160 3b 49 4b 3e 28 4e 59 bb e5 74 b7 3d 6d 93 ff bb
       0.19852154 -0.0033158157 0.08957843 -0.007799557
000170 a1 45 25 3e db 20 d2 bd db 62 a9 bd 64 0c 0c 3e
       0.16139843 -0.10260173 -0.08270808 0.13676602
000180 c7 a5 02 bc 1c c5 d3 3d 4c 88 45 be 3d af 45 bd
       -0.007974095 0.1034033 -0.19290274 -0.048262823
000190 78 d5 f9 3d 4c d1 00 be be 4c 03 bd 0c 37 85 3d
       0.12198919 -0.1257984 -0.03205561 0.0650464
0001a0 41 d4 80 3d ea 1e 83 3d 55 80 1d bd 4a 35 c6 3c
       0.06290484 0.06402381 -0.038452465 0.024195332
0001b0 8e f2 81 3c 52 76 21 3d cf c6 35 ba f5 82 2c bd
       0.01586273 0.03941948 -0.0006934227 -0.042117078
0001c0 ab f0 c6 bd 90 42 d2 bd 0e e3 9d bd d3 06 a9 bc
       -0.097138725 -0.10266602 -0.07709323 -0.020633137
0001d0 76 31 8b 3d a0 f4 98 3d 26 7b 71 bd c8 a6 83 3d
       0.06796543 0.074685335 -0.058955334 0.064282954
0001e0 09 fd b0 3c f2 fe 75 bc 91 00 7f 3c 73 82 c0 bd
       0.021605032 -0.015014397 0.0155641 -0.09399881
0001f0 9d 97 b9 3d 3c 03 b6 ba d1 6d b4 ba 9b 76 1e 3c
       0.09062121 -0.0013886462 -0.0013765638 0.009671832
000200 69 23 57 bd 90 08 de 3d c9 fe 1e 3e 71 aa 49 bd
       -0.052524004 0.10841477 0.1552688 -0.04923481
000210 0a 7e 4a bd 79 21 e6 bb 04 74 e3 bc d5 43 c5 bd
       -0.049436606 -0.007023033 -0.027765281 -0.096320786
000220 91 f5 97 bb 45 96 b1 3d 4f 42 86 3a 7e 22 e1 3d
       -0.004637428 0.0867124 0.001024315 0.10992907
000230 43 5c a9 bd 6c 58 42 bd d1 65 e9 bd fe 85 a0 bd
       -0.08269551 -0.047447607 -0.11396373 -0.07838057
000240 dd cc 17 3b 5c 5c b4 3d 2d 54 ef bd 71 ad 6f 3d
       0.002316288 0.08806679 -0.11685977 0.058515016
000250 88 7b 84 bd af e2 b5 3c 82 46 b0 bd 4c ce 1e be
       -0.06468874 0.022202818 -0.08607198 -0.15508384
000260 c8 c0 d5 bc 30 1f 5d bd 16 a5 61 3c d5 82 b4 3d
       -0.026092902 -0.05398482 0.01377227 0.08814017
000270 fb 99 95 bd 0a bb 64 bd 84 fb 92 bd ae b8 ef 3d
       -0.0730476 -0.055842437 -0.07176879 0.11705147
000280 58 ca 2f 3d 2c 8c a3 3d 75 3e 08 3d 70 4f ad 3d
       0.04291758 0.0798572 0.03326269 0.08462417
000290 36 8c 3c 3d bb 32 a2 3d 89 f9 e8 bd 34 27 8a 3d
       0.046032153 0.07919832 -0.1137572 0.06745759
0002a0 e9 9c a0 bd f4 a6 37 bb 9f 92 0c bd df ce bb bb
       -0.07842428 -0.0028023096 -0.034319516 -0.005731448
0002b0 42 30 10 bd 2d 8a 8b 3d 2f 28 88 3d f8 05 43 bb
       -0.035202272 0.06813464 0.066482894 -0.0029758196
0002c0 75 08 27 bd 07 d7 b6 3d 50 f9 6f bc 68 c7 6a 3d
       -0.04077955 0.08927732 -0.014646843 0.057319075
0002d0 be 9f e7 bd 2f 27 ae bd ca e2 30 3d ed 24 57 bb
       -0.11309765 -0.085035674 0.043185033 -0.0032828406
0002e0 ca cc c7 3b 6f 41 c6 bd de f9 16 bd 92 4f 7e 3d
       0.006097411 -0.09680449 -0.036859386 0.062087603
0002f0 69 02 80 3c 92 2c a7 bd bf 2f af 3d f0 ab 80 bb
       0.01562615 -0.08162798 0.08554029 -0.0039267465
000300 ea 0f f6 3d d0 55 e2 bd c1 a4 a2 bc 69 63 b7 bb
       0.12014754 -0.11051524 -0.019853951 -0.0055965674
000310 43 67 ca bd 65 d4 dd 3c 31 26 8d 3d a8 28 a0 bd
       -0.09882977 0.027078817 0.0689205 -0.078202546
000320 42 d7 9c 3c 26 83 c1 ba fa 26 77 bc 98 0b cb 3c
       0.019145612 -0.0014763817 -0.015084976 0.024785802
000330 58 18 be 3c ca d8 b5 bc 18 f3 27 bd 78 31 46 3d
       0.023204967 -0.0221981 -0.041003317 0.04838702
000340 81 23 a5 bd a7 bc c0 3d fb 35 ee bc 35 95 1f bd
       -0.080634125 0.094109826 -0.029078474 -0.038960654
000350 db 46 1b 3d 82 20 46 3c e8 5e f3 3c 93 53 a3 bd
       0.03790937 0.012092711 0.02970834 -0.07974925
000360 2e 5b ca bc e9 24 96 bd 33 b3 98 bd f9 92 59 bc
       -0.024701681 -0.07331259 -0.074560545 -0.01327967
000370 f9 a9 44 bc 95 ce c9 bc d5 3a b3 3d 4b 02 dc bd
       -0.012003415 -0.024634639 0.08751456 -0.10742625
000380 62 3e 4f 3d d7 8e 60 3d 4d 59 ae bd de 82 a0 bd
       0.050596602 0.054823723 -0.085131265 -0.07837461
000390 7b be 1d 3c 28 f5 a8 3c 92 19 79 3c b2 c5 55 3d
       0.009627934 0.020624712 0.01520385 0.05219049
0003a0 fd 86 56 bd 5a cc cc bd 21 68 10 bd e9 d6 ec bb
       -0.05237483 -0.099999145 -0.035255555 -0.0072277677
0003b0 20 22 cf bc fb bd 3d bd e6 d8 f2 bc a8 53 b7 3d
       -0.025284827 -0.046323758 -0.02964444 0.08951503
0003c0 02 4d f6 bc 17 f5 f0 3c 00 78 8c bc ce 5c 93 bd
       -0.030066017 0.029413743 -0.017147064 -0.071954355
0003d0 c9 5b 03 bd 5c 7f 61 3c 30 68 b0 3d 70 0b 77 3d
       -0.032069955 0.013763275 0.08613622 0.060313642
0003e0 00 42 5d 3d 16 dd 55 3d 39 81 85 bd 11 24 cb bd
       0.05401802 0.052212797 -0.06518788 -0.099189885
0003f0 f2 34 d0 bd 8b 89 94 bd 34 06 2b 3d dd 26 09 bd
       -0.101663485 -0.07252797 0.041753963 -0.03348433

hidden_layer_2.bias f4 [50]
000000 bd 32 3c 3d 54 f4 3b 3d 5b df b8 bc f7 58 10 3d
       0.045946825 0.045887306 -0.022567442 0.035241093
000010 38 fc 7e 3d 01 57 c8 3d de 9e c2 bc 87 b5 c1 bd
       0.062252253 0.0978222 -0.023757394 -0.09458452
000020 b4 ce b6 3d e7 9e c8 3c cf d1 00 3d 8c 51 92 3d
       0.08926144 0.024489833 0.03145009 0.0714446
000030 cb 52 c0 bc 82 94 43 3b f6 08 57 3d d0 38 ba 3d
       -0.023476979 0.0029843156 0.05249878 0.090928674
000040 ed 28 c3 ba b9 96 7b 3c ec d5 27 bd 38 92 a0 bd
       -0.0014889516 0.015355759 -0.040975496 -0.07840389
000050 e6 7c 3e 3d bf a9 1a 3c 9a 27 32 3d 65 73 90 3c
       0.04650583 0.009439885 0.0434948 0.01763315
000060 b3 ac 8c 3c 67 b8 65 3d bd 35 90 bd 40 71 17 3d
       0.017172193 0.056084063 -0.070415 0.036973238
000070 fa a0 3f ba 1d e7 c6 bd f9 cf 96 bc ff 62 be 3c
       -0.0007310059 -0.0971205 -0.018409716 0.023240564
000080 8a b6 0f bd 20 51 d2 3c e0 59 c6 bd 24 eb 8e bc
       -0.035086192 0.025673449 -0.09685111 -0.017446108
000090 4d a6 5c bb eb 71 c1 bd 7f 15 6e bc 3d 06 ef 3c
       -0.003366846 -0.09445556 -0.014531492 0.02917778
0000a0 64 40 ea 3c 51 f3 6d 3d 5f 50 92 3d f5 41 97 ba
       0.028595157 0.058093373 0.07144236 -0.0011540042
0000b0 eb e9 96 3d c2 de 41 3d 72 6f ca 3d fb 44 95 3d
       0.07368835 0.04733158 0.09884538 0.072885476
0000c0 19 b7 fa bc 54 de 95 bd
       -0.030604886 -0.07317796

output_layer.weight f4 [1, 50]
000000 6f 3b 7a 3f 95 14 b0 3e 43 27 b4 3d 35 b7 fd be
       0.9774694 0.34390703 0.08796551 -0.49553838
000010 b1 e0 70 be d6 6d 9e 3e b2 79 cd be 7d ba 91 3d
       -0.23523213 0.30943173 -0.4013191 0.07115648
000020 fb d5 1b 3f 94 39 c1 bd fb ff cb 3e 5d 63 ff be
       0.60873383 -0.0943481 0.39843735 -0.49880496
000030 57 6e 15 bf da fc fd 3d bb 0c 89 bd db 42 4c 3e
       -0.5837149 0.12401743 -0.06691881 0.19947378
000040 c6 46 04 be de 7a c6 3d 48 48 b9 be 1e b7 fd 3e
       -0.12917623 0.09691404 -0.3618796 0.4955377
000050 cb ce bf be 32 f2 ba bd ce 2a 92 3e d2 76 f5 be
       -0.37462458 -0.09128226 0.28548282 -0.47942215
000060 04 b8 12 3f 3a df 16 3f 6a dc 2d bf b6 1d e4 3e
       0.57312036 0.58934367 -0.6791445 0.44553918
000070 f3 9d 10 bf 9f 92 1a bf 6b 4e fc be d4 2a 8c bd
       -0.5649101 -0.60379976 -0.49278578 -0.06844106
000080 6c 2c df 3e 37 f6 41 bf fd db c0 be c2 8c a0 3b
       0.4358858 -0.7576632 -0.37667838 0.004899592
000090 72 80 09 3f 35 30 a4 be 45 0c d9 3e 14 e2 0c 3e
       0.53711617 -0.3206803 0.42392173 0.13758117
0000a0 9a 59 d4 be c1 cf 0b bd 6c cf 1b be 83 b0 35 3f
       -0.4147461 -0.034133676 -0.15215844 0.7097246
0000b0 cb bc 9c be 61 0b f5 3e d8 47 1e bd ab a1 28 bd
       -0.30612788 0.47860244 -0.038642734 -0.041169804
0000c0 6a 3d 14 be 28 55 ec 3c
       -0.14476553 0.0288492
